deployment/policy.pt (torch, 299424 bytes, 8 tensors)

weight f4 [256, 75]
-1.2994428 0.30529583 -0.015811268 0.13772473 0.09871021 -0.03238788 -0.073600166 -0.76811415
-0.07513814 -0.27542564 0.3988238 0.32607302 0.23289031 0.370793 0.28716448 0.15059257
0.09133144 0.26030257 0.25339973 0.100834265 0.1971942 0.06198585 -0.023948707 -0.27094284
0.050044935 0.14975767 -0.023167575 -0.026972553 -0.09122472 -0.024877723 -0.026317757 0.07606135
-0.014264739 0.10937318 -0.02008823 -0.061672386 -0.031748664 -0.02000291 0.018899826 -0.047889255
-0.026244562 -0.003960809 0.03407345 0.05993604 0.04249105 -0.014855221 -0.023173396 0.021739248
-0.036136445 -0.030988397 -0.026748229 0.011086312 -0.1196381 0.006562659 -0.09946161 -0.13283575
0.04034997 -0.010983426 -0.14480345 0.045369703 0.066184185 0.04697261 0.04640129 -0.20744047
0.044700835 0.17584246 -0.15452603 0.19970691 -0.05080594 -0.05816699 0.0016950582 -0.08704108
-0.0026862517 0.16323608 0.103983186 -0.4172144 -0.7011781 -0.035975695 -0.080236316 -0.19699158
0.053878296 -0.4630804 -0.12437489 0.7854123 -0.19968258 0.63648957 -0.052185778 -0.16743362
0.20506337 0.83511186 0.177249 0.10680944 -0.37158218 -0.43586347 -0.16283427 -0.009018794
0.013701845 0.13196532 -0.06483965 -0.08442591 0.13677247 0.11444088 0.049279906 -0.10453813
-0.13054271 0.037987024 0.016000768 0.11287356 0.05490811 0.011913084 -0.004829442 -0.022805264
0.011218179 0.020169208 0.020536896 0.000683447 -0.00018977506 0.0673243 0.12731008 -0.035158664
-0.034146536 0.025406621 0.04464426 0.021234794 0.015306246 0.02079158 0.016934983 0.024425242
0.055743746 -0.28441206 -0.09562485 0.20519407 -0.04135001 -0.124956526 -0.12797205 0.06579483
-0.11873845 -0.06303219 -0.22805838 -0.100441545 0.18162078 0.0077784103 -0.12412409 -9.8649645e-05
-0.029519793 -0.070099555 0.10091132 -0.019414362 -0.019949943 -0.17094922 0.31405687 0.13915075
0.16440496 0.16624734 0.573596 0.2090345 -0.036800526 0.2904398 0.09020763 0.43608734
-0.54762346 0.24202956 -0.08289941 -0.59059054 -0.1627551 -0.29566288 -0.1875219 -0.34895608
-0.0028645725 -0.29689893 -0.09159791 -0.016348861 0.11476346 0.15714446 0.034668226 -0.08011159
0.10712219 0.005406838 -0.06010869 0.037268464 0.030519282 -0.049824648 0.031963706 0.10525342
0.010163323 0.007456151 0.046829212 0.17414878 -0.013857878 0.041041978 0.01545709 0.0725529
0.027692 0.0153057175 0.05997287 0.0377001 -0.022996124 0.009313132 0.032370836 0.036196705
0.011857886 0.0009573072 -0.14332011 0.009943383 -0.08033423 0.09398262 0.045160156 0.053084437
-0.1579259 -0.0039116004 0.025624355 0.071727544 0.052484352 0.21702375 -0.004382942 -0.020316277
-0.12564203 -0.0063373432 -0.047145076 0.0052305576 -0.005877707 -0.16570011 -0.022482228 0.054538283
0.09233787 -0.4252721 -0.04689343 0.013418162 0.12320003 -0.025210297 0.47194034 0.118977614
-0.09434003 0.53905797 -0.22538854 -0.1952514 0.31477955 0.26201323 -0.042747404 0.2606186
0.23259835 0.105614156 0.6687095 0.89424694 -0.41050357 -0.54643065 -0.04540593 -0.01231117
-0.16764253 -0.048330434 -0.0522395 0.11696576 -0.04223437 -0.11861337 -0.06478469 -0.10169971
00000000: 2454 a6bf bc4f 9c3e a286 81bc b607 0d3e
00000010: 9428 ca3d 27a9 04bd afbb 96bd 21a3 44bf
00000020: 06e2 99bd 9704 8dbe a232 cc3e 0bf3 a63e
00000030: cc7a 6e3e 95d8 bd3e 3907 933e f034 1a3e
00000040: fa0b bb3d 6146 853e 9cbd 813e 3282 ce3d
00000050: 47ed 493e e0e4 7d3d 1430 c4bc 05b9 8abe
00000060: ebfb 4c3d 135a 193e edc9 bdbc 8bf5 dcbc
00000070: 07d4 babd 5ecc cbbc 5698 d7bc 0ec6 9b3d
00000080: a7b6 69bc 0cff df3d 1290 a4bc 2f9c 7cbd
00000090: e30a 02bd 25dd a3bc cfd3 9a3c 8627 44bd
000000a0: d6fe d6bc adc9 81bb 9a90 0b3d 7e7f 753d
000000b0: 180b 2e3d 5063 73bc 22d6 bdbc 8216 b23c
000000c0: cf03 14bd 61db fdbc 1a1f dbbc 5da3 353c
000000d0: d204 f5bd 930b d73b 87b2 cbbd 1806 08be
000000e0: 0346 253d d4f3 33bc 5b47 14be 95d5 393d
000000f0: 938b 873d 5a66 403d 470f 3e3d 466b 54be
00000100: 3918 373d 0c10 343e 123c 1ebe f87f 4c3e
00000110: e419 50bd 8240 6ebd b72c de3a 9842 b2bd
00000120: d30b 30bb 5c27 273e 23f5 d43d 209d d5be
00000130: 6880 33bf 405b 13bd f052 a4bd 29b8 49be
00000140: 7daf 5c3d e018 edbe 43b8 febd c810 493f
00000150: 9779 4cbe fbf0 223f c1c0 55bd b873 2bbe
00000160: 22fc 513e e4c9 553f c380 353e e8be da3d
00000170: 0540 bebe 7f29 dfbe 07be 26be 90c3 13bc
00000180: b47d 603c eb21 073e a7ca 84bd 7ee7 acbd
00000190: 150e 0c3e fb5f ea3d bad9 493d 1618 d6bd
000001a0: fdac 05be 4898 1b3d 0b14 833c 412a e73d
000001b0: 54e7 603d 192f 433c 4c40 9ebb 1bd2 babc
000001c0: 74cc 373c e539 a53c fe3c a83c 5a29 333a
000001d0: 5bfe 46b9 53e1 893d 935d 023e 8802 10bd
000001e0: 3ddd 0bbd 8c21 d03c e6dc 363d 97f4 ad3c
000001f0: 0cc7 7a3c 1b53 aa3c 3cbb 8a3c 7217 c83c
00000200: 8e53 643d 759e 91be f6d6 c3bd 651e 523e
00000210: a15e 29bd 35e9 ffbd 1b0b 03be 71bf 863d
00000220: 252d f3bd 0517 81bd 2388 69be 4cb4 cdbd
00000230: ccfa 393e 09e2 fe3b c534 febd 20e2 ceb8
00000240: 7ed3 f1bc 5b90 8fbd 98aa ce3d de0a 9fbc
00000250: 106e a3bc 500d 2fbe 10cc a03e 897d 0e3e
00000260: c659 283e be3c 2a3e 30d7 123f 240d 563e
00000270: 26bc 16bd 87b4 943e c7be b83d d746 df3e
00000280: 0d31 0cbf 99d6 773e 2ac7 a9bd f130 17bf
00000290: 46a9 26be 2061 97be be05 40be 5faa b2be
000002a0: 8dbb 3bbb 2303 98be af97 bbbd 0cee 85bc
000002b0: 1b09 eb3d 7aea 203e 4500 0e3d 8c11 a4bd
000002c0: e162 db3d d82b b13b 8834 76bd d1a6 183d
000002d0: 9303 fa3c ee14 4cbd 60ec 023d 1b8f d73d
000002e0: 1184 263c ba52 f43b fdcf 3f3d 0f54 323e
000002f0: 270c 63bc a21b 283d bc3f 7d3c 9d96 943d
00000300: 55da e23c d5c4 7a3c 1da6 753d 6c6b 1a3d
00000310: 5e62 bcbc 1b96 183c 4897 043d ff42 143d
00000320: 9447 423c ccf3 7a3a 82c2 12be 92e9 223c
00000330: 4686 a4bd f679 c03d dbf9 383d 116f 593d
00000340: 54b7 21be e22c 80bb 2bea d13c e4e5 923d
00000350: d5f9 563d 793b 5e3e c89e 8fbb 526e a6bc
00000360: 4ea8 00be 7da9 cfbb 321b 41bd 1965 ab3b
00000370: c899 c0bb 4aad 29be a62c b8bc 8963 5f3d
00000380: a31b bd3d 44bd d9be 5313 40bd dad7 5b3c
00000390: 4c50 fc3d d385 cebc 2aa2 f13e 89aa f33d
000003a0: 5835 c1bd b4ff 093f 41cc 66be fcef 47be
000003b0: c92a a13e 9926 863e e717 2fbd cd6f 853e
000003c0: 432e 6e3e 3c4c d83d 8c30 2b3f 5eed 643f
000003d0: 862d d2be e1e2 0bbf 92fb 39bd cab4 49bc
000003e0: 7caa 2bbe 22f6 45bd 16f9 55bd bf8b ef3d
000003f0: f2fd 2cbd 91eb f2bd d6ad 84bd f047 d0bd

bias f4 [256]
-0.015960362 -0.09821806 0.0010299635 0.022923864 0.059337076 0.03279533 0.11545395 -0.010605931
-0.05448069 -0.1555119 -0.043274913 0.043977436 -0.01117478 0.05132889 0.030539418 0.06656665
0.002463705 -0.051005367 -0.005686982 0.1223588 -0.045429282 -0.08644743 0.078086115 -0.08783902
-0.12886605 -0.13641046 0.026153857 0.035828736 -0.058588937 0.020217959 0.017141514 0.0483449
0.0046602353 0.043839417 -0.119326636 -0.08739948 0.0053614415 0.0027340308 -0.111583516 0.0024525912
-0.03261403 0.07328161 0.042152215 0.055308543 -0.16192974 -0.09303556 -0.004283033 0.0051507284
0.043928783 0.06359015 0.030168507 0.08489002 -0.09737628 0.12785348 -0.14371017 0.046299517
0.015500936 -0.008485189 -0.10466867 -0.11747522 0.06829615 -0.019216698 0.10136099 0.0751387
-0.04840909 -0.0938165 -0.0795888 -0.012422828 -0.0073777004 -0.024135051 0.017527496 -0.06239037
0.05838369 0.04579205 -0.06050148 -0.07412792 -0.07028171 0.13686247 -0.09217614 -0.032329448
-0.12211278 0.012838256 -0.06567472 0.099100314 -0.19411205 0.062227685 -0.105789445 0.02663799
0.049676605 -0.0071822098 0.03700251 0.13744543 0.036995523 0.02395451 0.03215917 -0.095593624
0.05991364 -0.08524425 -0.08127814 -0.03893072 -0.11158933 0.06547287 -0.12600575 0.05284007
-0.0020107073 0.10577283 0.12737383 -0.17873497 -0.17335847 0.023015186 -0.054687925 -0.184949
0.06827302 0.059333656 -0.103851594 0.020400044 0.009444629 0.04606925 -0.006640077 -0.0040302156
0.05784649 0.0065042474 0.12386548 -0.11565172 -0.06502276 0.04114786 -0.114050806 -0.043896113
0.10373179 0.00701997 -0.13731857 0.02586835 0.01167013 0.051024225 0.07837985 0.08604937
-0.08101842 0.03182719 -0.09363767 0.03150701 -0.085799724 -0.13834721 0.01854539 -0.040274955
0.015306713 0.08610577 0.11233816 -0.1751184 -0.14391959 -0.09329766 -0.04457927 -0.058323447
0.022896765 0.024366124 -0.0023817557 0.08062613 -0.029846922 -0.08675269 -0.0592602 -0.06363027
0.082904026 -0.088939324 0.06779121 0.029592356 -0.06928849 0.03961677 0.16206506 0.058063544
-0.0060936115 -0.12073503 0.05054822 0.086006366 -0.018839395 -0.027451785 -0.07756495 -0.06947285
0.0931417 0.08673844 0.009689705 -0.019119244 -0.0929856 0.09460523 0.08842147 -0.046240497
-0.15580623 -0.032435574 -0.029757436 -0.083814815 -0.12641305 -0.0100601 0.11500305 -0.095422216
-0.111338764 -0.029959332 0.050229564 -0.11975014 0.035054766 -0.015815323 -0.13515085 -0.012198036
-0.050017044 0.01018639 -0.093423635 -0.117960766 -0.12605897 0.020884976 0.029057132 -0.04130174
0.004923284 -0.071137406 -0.057832483 0.020747961 -0.08110167 -0.049873635 -0.15814318 -0.07355047
0.1791777 0.023839295 0.0839772 0.061826352 -0.10677802 -0.02337522 -0.14130662 -0.108982384
-0.15698966 -0.07500332 -0.18614824 -0.05043277 -0.1627836 -0.04839233 -0.113901086 0.029394265
-0.026206542 -0.014012777 0.04005127 0.029781617 -0.063740775 -0.054957915 -0.054663535 -0.1610972
-0.0014497513 0.07570899 -0.0039150817 -0.08153809 0.035484266 0.041895207 -0.103111304 0.041918766
-0.078172654 0.036134396 0.061399918 -0.030962346 0.093095206 0.0007000749 0.05275336 -0.008126104
00000000: 4ebf 82bc 8d26 c9bd d7ff 863a d4ca bb3c
00000010: 6f0b 733d 6554 063d 1f73 ec3d 80c4 2dbc
00000020: 2527 5fbd 833e 1fbe 0941 31bd af21 343d
00000030: 6d16 37bc 3e3e 523d cd2d fa3c 1954 883d
00000040: 1c76 213b 01eb 50bd dd59 babb 4097 fa3d
00000050: 0e14 3abd 5a0b b1bd 9deb 9f3d f2e4 b3bd
00000060: 76f5 03be 2faf 0bbe 9d40 d63c 27c1 123d
00000070: f4fa 6fbd 22a0 a53c 5c6c 8c3c 4d05 463d
00000080: e3b4 983b f690 333d 8661 f4bd 80fe b2bd
00000090: 08af af3b 6d2d 333b e685 e4bd a7bb 203b
000000a0: 4a96 05bd ab14 963d cda7 2c3d 368b 623d
000000b0: e9d0 25be 6d89 bebd af58 8cbb 71c7 a83b
000000c0: abee 333d 8d3b 823d f223 f73c d2da ad3d
000000d0: 376d c7bd 06ec 023e c228 13be 90a4 3d3d
000000e0: a3f7 7d3c 7605 0bbc 875c d6bd d996 f0bd
000000f0: dade 8b3d 566c 9dbc 5a96 cf3d 52e2 993d
00000100: 9c48 46bd dd22 c0bd 74ff a2bd 1e89 4bbc
00000110: a3c0 f1bb dfb6 c5bc d395 8f3c 0b8d 7fbd
00000120: bc23 6f3d 7290 3b3d 66d0 77bd 61d0 97bd
00000130: dbef 8fbd ad25 0c3e d8c6 bcbd e26b 04bd
00000140: 4416 fabd 8c57 523c 7880 86bd 1bf5 ca3d
00000150: 4fc5 46be 75e2 7e3d 23a8 d8bd ea37 da3c
00000160: b279 4b3d be58 ebbb f28f 173d 7fbe 0c3e
00000170: 9e88 173d 403c c43c 55b9 033d 97c6 c3bd
00000180: 0168 753d 8a94 aebd 2775 a6bd d275 1fbd
00000190: f288 e4bd a416 863d a707 01be d46e 583d
000001a0: 12c6 03bb 6d9f d83d 496e 023e 4d06 37be
000001b0: e284 31be 588a bc3c 7200 60bd 4563 3dbe
000001c0: bad2 8b3d d907 733d 25b0 d4bd fe1d a73c
000001d0: a5bd 1a3c 1cb3 3c3d 0195 d9bb e60f 84bb
000001e0: 71f0 6c3d 9521 d53b 2fad fd3d cfda ecbd
000001f0: a72a 85bd a98a 283d 7893 e9bd 69cc 33bd
00000200: 5571 d43d c707 e63b 3d9d 0cbe dde9 d33c
00000210: 1334 3f3c c7fe 503d 9d85 a03d a73a b03d
00000220: fcec a5bd 3a5d 023d 1bc5 bfbd 7f0d 013d
00000230: c4b7 afbd e4aa 0dbe 80ec 973c 5af7 24bd
00000240: 02c9 7a3c 3958 b03d 8d11 e63d 3d52 33be
00000250: a85f 13be d812 bfbd c198 36bd 91e4 6ebd
00000260: ff91 bb3c 779b c73c 3b17 1cbb 501f a53d
00000270: 8881 f4bc 65ab b1bd d3ba 72bd 9650 82bd
00000280: 96c9 a93d d225 b6bd 1ed6 8a3d ab6b f23c
00000290: 20e7 8dbd 3245 223d 62f4 253e 0ad4 6d3d
000002a0: ebac c7bb ed43 f7bd a60b 4f3d 1b24 b03d
000002b0: 1355 9abc 91e2 e0bc 5fda 9ebd c847 8ebd
000002c0: 13c1 be3d eca3 b13d 92c1 1e3c f69f 9cbc
000002d0: 3c6f bebd 63c0 c13d 5116 b53d ad66 3dbd
000002e0: ab8b 1fbe 2adb 04bd dec5 f3bc 1aa7 abbd
000002f0: 6c72 01be 1ed3 24bc b886 eb3d b96c c3bd
00000300: 9405 e4bd 466d f5bc 84bd 4d3d 903f f5bd
00000310: 9695 0f3d 238f 81bc fc64 0abe 45da 47bc
00000320: acde 4cbd d1e4 263c e454 bfbd 6a95 f1bd
00000330: 9a15 01be f816 ab3c 3909 ee3c 032c 29bd
00000340: 8053 a13b 7db0 91bd c1e1 6cbd a1f7 a93c
00000350: a218 a6bd 4c48 4cbd 49f0 21be a1a1 96bd
00000360: 5c7a 373e a04a c33c 3dfc ab3d a13d 7d3d
00000370: 6fae dabd 647d bfbc afb2 10be 2832 dfbd
00000380: e6c1 20be 579b 99bd a59d 3ebe 9892 4ebd
00000390: beb0 26be 0937 46bd f944 e9bd 3ecc f03c
000003a0: 1aaf d6bc d995 65bc cd0c 243d 94f8 f33c
000003b0: 868a 82bd 8d1b 61bd dfe6 5fbd aaf6 24be
000003c0: 9505 beba 510d 9b3d 164a 80bb 71fd a6bd
000003d0: f357 113d 4f9a 2b3d 052c d3bd 03b3 2b3d
000003e0: fc18 a0bd a901 143d 7b7e 7b3d bfa4 fdbc
000003f0: b3a8 be3d 3b85 373a e813 583d 5a23 05bc

weight f4 [128, 256]
-0.016016945 0.0017192619 -0.092752695 0.0041144798 -0.023693616 0.032276195 0.02523243 0.00248874
0.012111776 0.05181529 -0.019494822 -0.019022372 -0.04444761 -0.042540804 -0.07407893 0.03349771
-0.106415 0.08783521 0.048013385 0.0041354382 0.037883624 -0.053336617 -0.017797882 0.033117983
-0.01947791 0.0012418997 -0.013637025 0.059330612 0.019729532 -0.012339443 0.01731997 -0.057531673
-0.015822846 0.00074119004 0.06748438 -0.051128704 0.03727438 -0.055548508 0.078634195 -0.021773065
0.07363649 0.073696725 -0.10150145 -0.013735606 0.009674689 -0.124613896 -0.05892406 -0.08545586
0.05591954 -0.010779 0.053557154 0.00070524635 -0.021419095 -0.059873674 0.03298537 -0.06829721
-0.045107342 0.0912945 0.040596835 0.009124731 0.016768118 0.010929881 0.008935717 0.042435527
0.036162797 -0.096745655 0.008894247 -0.07949456 -0.060462784 -0.039568964 -0.028829657 0.011639587
0.03449306 0.0016363253 0.011305388 0.058205582 -0.0041668476 0.03494479 0.0558845 -0.011072163
0.019352738 -0.008199714 0.007192612 0.043178044 -0.05901093 -0.051972803 -0.051380046 -0.07100407
0.0863772 -0.063864015 -0.06011332 -0.025516974 0.010823331 0.008614127 0.016984923 -0.110393696
0.015066864 0.0028736372 0.011220479 -0.012363653 -0.0701084 0.0652097 -0.0013720935 -0.0033606396
0.034697797 0.099289425 -0.0062611806 0.07610992 0.022068605 0.0978913 -0.0026522924 0.022353679
0.015688717 0.11314639 -0.067756414 -0.058254905 0.013034225 -0.038850162 0.017881911 -0.0068553044
-0.10715265 -0.022159213 -0.04778816 0.0011285193 0.01575141 -0.037122753 -0.04374594 0.06254125
-0.00961657 -0.025191292 0.012516929 -0.007763739 -0.0089473715 0.06853793 0.08910039 -0.07737359
0.023252578 -0.055256702 -0.03496962 0.05493201 -0.059528682 -0.00519478 -0.051788304 0.04993667
0.0016416534 -0.024860593 -0.03550889 0.053104777 0.0016307089 -0.01065373 -0.04066607 -0.03342567
-0.10581971 0.03583078 0.03366356 -0.0050605848 0.031061757 -0.03558498 -0.047137823 -0.020579051
0.06494223 -0.060539898 -0.008499746 -0.07379512 0.033921327 0.00021640025 0.016041799 0.045764856
-0.03182792 -0.011081769 -0.046495948 0.053817865 0.062617086 -0.0740131 -0.07122284 -0.07493874
0.007835809 -0.07137994 -0.043319743 0.040742565 -0.01438549 0.0588063 0.048337616 0.05811177
0.0072414735 -0.081234366 -0.0040485 -0.026447613 0.04380416 0.013986191 0.03272355 -0.053272523
0.013159238 -0.052475385 -0.0669441 -0.15670377 0.036549184 -0.02704621 -0.011529209 0.04530242
0.080773436 0.012185818 0.010136512 0.06735237 -0.012879482 0.004790878 -0.036610574 0.048146386
0.016125452 -0.03513532 0.023793563 -0.0072527877 -0.015058135 -0.020377792 0.025446922 -0.03533894
-0.004792779 -0.048147928 -0.030011324 -0.023616645 -0.024432765 0.042298924 -0.034925275 -0.006825523
0.04788594 -0.02204664 0.08302146 -0.01931604 0.12350262 0.020127319 -0.042290784 -0.031702347
0.030772628 -0.0650653 -0.08917161 -0.14751124 -0.021452285 -0.009952871 0.050982606 0.02756212
-0.021548968 0.021978244 0.063392125 -0.020422317 -0.011848457 -0.020845354 -0.04255729 0.04252781
-0.062956385 0.00010442025 -0.0042874427 -0.06891527 -0.06400754 -0.049573813 0.032256387 0.013482084
00000000: f835 83bc db58 e13a 20f5 bdbd c2d2 863b
00000010: 1d19 c2bc 0b34 043d 3eb4 ce3c 211a 233b
00000020: 7870 463c 453c 543d 9bb3 9fbc ced4 9bbc
00000030: b20e 36bd 443f 2ebd b2b6 97bd e534 093d
00000040: 1cf0 d9bd f2e2 b33d afa9 443d 9282 873b
00000050: dc2b 1b3d 7f77 5abd ddcc 91bc b9a6 073d
00000060: 2390 9fbc 3dc7 a23a d46d 5fbc a804 733d
00000070: d49f a13c 602b 4abc 9ce2 8d3c 55a6 6bbd
00000080: ea9e 81bc 6c4c 423a 4035 8a3d 556c 51bd
00000090: 05ad 183d d586 63bd f70a a13d 6d5d b2bc
000000a0: bace 963d 4fee 963d fedf cfbd 4f0b 61bc
000000b0: 9682 1e3c 9235 ffbd 5b5a 71bd 7b03 afbd
000000c0: e30b 653d 679a 30bc bf5e 5b3d 48e0 383a
000000d0: 1977 afbc 193e 75bd ab1b 073d 68df 8bbd
000000e0: 7ac2 38bd 9cf8 ba3d de48 263d e57f 153c
000000f0: 4b5d 893c 3e13 333c 1d67 123c e0d0 2d3d
00000100: 711f 143d 9622 c6bd 2db9 113c 0bce a2bd
00000110: d3a7 77bd 1113 22bd 2c2c ecbc f7b3 3e3c
00000120: 9848 0d3d f779 d63a 3c3a 393c fa68 6e3d
00000130: 0d8a 88bb 4522 0f3d 25e7 643d 0468 35bc
00000140: a289 9e3c 1858 06bc 01b0 eb3b 76db 303d
00000150: 72b5 71bd 6fe1 54bd e273 52bd 956a 91bd
00000160: 88e6 b03d 23cb 82bd 6239 76bd f908 d1bc
00000170: 5754 313c 4422 0d3c f723 8b3c 1716 e2bd
00000180: 02db 763c a253 3c3b 1ad6 373c eb90 4abc
00000190: fe94 8fbd aa8c 853d d1d7 b3ba 2d3e 5cbb
000001a0: 471f 0e3d 4158 cb3d 972a cdbb 85df 9b3d
000001b0: 38c9 b43c 3c7b c83d 15d2 2dbb 101f b73c
000001c0: a085 803c 4bb9 e73d e0c3 8abd b29c 6ebd
000001d0: 818d 553c 5921 1fbd 167d 923c 76a2 e0bb
000001e0: d972 dbbd 3d87 b5bc 85bd 43bd d3ea 933a
000001f0: 1a09 813c 070e 18bd f12e 33bd a015 803d
00000200: d18e 1dbc f85d cebc ce13 4d3c f766 febb
00000210: ff97 12bc 9d5d 8c3d 447a b63d 0b76 9ebd
00000220: 317c be3c da54 62bd 4e3c 0fbd 6300 613d
00000230: 59d4 73bd f938 aabb f91f 54bd 658a 4c3d
00000240: bf2c d73a 71a8 cbbc c571 11bd 6584 593d
00000250: 83bd d53a fb8c 2ebc 7791 26bd 5be9 08bd
00000260: 01b8 d8bd 4cc3 123d cde2 093d 43d3 a5bb
00000270: 3a75 fe3c 8ec1 11bd 9713 41bd 6695 a8bc
00000280: 6f00 853d aff8 77bd 8542 0bbc e521 97bd
00000290: 17f1 0a3d 80e9 6239 176a 833c ee73 3b3d
000002a0: fe5d 02bd 4f90 35bc 8972 3ebd 1f70 5c3d
000002b0: 633d 803d 2e94 97bd 48dd 91bd 7b79 99bd
000002c0: c461 003c a52f 92bd 0b70 31bd ade1 263d
000002d0: 1eb1 6bbc e0de 703d aafd 453d 9b06 6e3d
000002e0: e249 ed3b 345e a6bd 48a9 84bb aaa8 d8bc
000002f0: fe6b 333d 5626 653c 2109 063d 4a34 5abd
00000300: d899 573c 6ef0 56bd fd19 89bd f476 20be
00000310: 99b4 153d 0390 ddbc 02e5 3cbc 088f 393d
00000320: 8b6c a53d 06a7 473c 9d13 263c 0af0 893d
00000330: 7604 53bc ccfc 9c3b f8f4 15bd 2535 453d
00000340: 8619 843c 0eea 0fbd b8ea c23c cba8 edbb
00000350: 65b6 76bc 54ef a6bc 1076 d03c 90bf 10bd
00000360: bf0c 9dbb c336 45bd 4fda f5bc b277 c1bc
00000370: 3927 c8bc a341 2d3d ce0d 0fbd a3a8 dfbb
00000380: 0c24 443d 289b b4bc 2807 aa3d ac3c 9ebc
00000390: f1ee fc3d 0ce2 a43c 1a39 2dbd 52da 01bd
000003a0: e116 fc3c f540 85bd 9b9f b6bd 300d 17be
000003b0: b4bc afbc 5e11 23bc 23d3 503d f5c9 e13c
000003c0: 7687 b0bc b80b b43c bbd3 813d b44c a7bc
000003d0: 0820 42bc e0c3 aabc 8e50 2ebd a431 2e3d
000003e0: 47ef 80bd 32fc da38 ad7d 8cbb 7323 8dbd
000003f0: 6316 83bd e90d 4bbd 461f 043d f5e3 5c3c

bias f4 [128]
-0.03673257 -0.044971455 -0.052752357 0.05347848 -0.067669876 -0.02764222 -0.0031047356 -0.06350939
0.047449745 -0.10311273 -0.037239898 -0.053425454 -0.04411288 -0.041109495 -0.04876005 0.04677964
0.06897146 0.019578446 -0.13453086 -0.0035873055 -0.003190466 0.012923202 -0.0036112708 0.037636876
0.028144624 0.021610135 -0.0145619875 -0.083863005 0.037109017 -0.048258517 0.0063453233 0.052327238
-0.082388535 -0.0040740953 0.04796064 -0.013444619 0.011970921 -0.044289235 0.010282258 -0.09285485
-0.084008105 0.13700467 0.020272592 -0.0018022113 0.009095772 -0.084631875 -0.042806532 -0.008150077
-0.06399877 -0.022894569 0.020352917 0.04947531 -0.1155756 -0.026821747 -0.02698027 0.017848505
-0.048713546 -0.023634447 -0.0864813 -0.10528224 -0.1725446 -0.006044224 -0.11115674 -0.024064863
-0.013181201 0.030884359 -0.09894079 0.04932306 -0.023008984 -0.050583668 0.011654925 -0.048468783
-0.053084888 -0.016511032 -0.02791109 -0.07002248 -0.026430205 -0.001713422 0.027138937 -0.06374556
0.058254674 -0.052733097 -0.033181995 0.030973429 0.006521268 -0.047119197 0.025144294 -0.010226913
-0.066199936 -0.0048621586 0.031019982 -0.07529703 -0.02861304 0.025940152 0.02353822 -0.08004274
-0.02823515 -0.060173795 -0.048453186 -0.09569721 -0.02061139 -0.010587611 -0.062598564 0.038444757
-0.12840088 -0.08366101 -0.07284094 0.02540578 0.020993622 0.0098990835 -0.110095575 -0.005873303
-0.11555862 -0.013846357 -0.0631279 -0.04525262 0.0046046204 0.013007476 0.07147426 0.014631758
0.033652887 0.046159703 0.040436998 0.04638966 -0.08870599 -0.03324118 -0.042430557 -0.01247797
00000000: e474 16bd fd33 38bd db12 58bd 400c 5b3d
00000010: 8196 8abd f071 e2bc d278 4bbb 3611 82bd
00000020: aa5a 423d c42c d3bd dd88 18bd a6d4 5abd
00000030: b5af 34bd 6e62 28bd 9eb8 47bd 029c 3f3d
00000040: e940 8d3d fa62 a03c 75c2 09be 0019 6bbb
00000050: 2317 51bb d6bb 533c 12ab 6cbb 2029 1a3d
00000060: 8e8f e63c bd07 b13c 6795 6ebc 5ec0 abbd
00000070: a0ff 173d b9aa 45bd 6eec cf3b 1655 563d
00000080: 52bb a8bd fd7f 85bb 6072 443d d246 5cbc
00000090: af21 443c a168 35bd ea76 283c af2a bebd
000000a0: 710c acbd f44a 0c3e b512 a63c 2d38 ecba
000000b0: 6f06 153c 7a53 adbd e755 2fbd e787 05bc
000000c0: ca11 83bd 648d bbbc 29bb a63c 9fa6 4a3d
000000d0: e6b2 ecbd 48b9 dbbc ba05 ddbc 0737 923c
000000e0: db87 47bd 079d c1bc 1c1d b1bd 379e d7bd
000000f0: 88af 30be a00e c6bb 25a6 e3bd ad23 c5bc
00000100: f7f5 57bc 3201 fd3c 78a1 cabd fa06 4a3d
00000110: 567d bcbc d230 4fbd 4cf4 3e3c 3487 46bd
00000120: 8a6f 59bd 2542 87bc cca5 e4bc f267 8fbd
00000130: 2884 d8bc e794 e0ba 7a52 de3c 088d 82bd
00000140: 749c 6e3d a9fe 57bd d8e9 07bd fdbb fd3c
00000150: 5cb0 d53b 0f00 41bd 68fb cd3c c88e 27bc
00000160: d593 87bd be52 9fbb 9e1d fe3c 5435 9abd
00000170: e565 eabc 7180 d43c 3ad3 c03c 73ed a3bd
00000180: 674d e7bc cc78 76bd d976 46bd e6fc c3bd
00000190: 38d9 a8bc a977 2dbc ad33 80bd 4078 1d3d
000001a0: 857b 03be 7756 abbd a12d 95bd c81f d03c
000001b0: d1fa ab3c c42f 223c ca79 e1bd d674 c0bb
000001c0: ffa9 ecbd d5db 62bc 3349 81bd d05a 39bd
000001d0: 5be2 963b 4f1d 553c 1961 923d 0bba 6f3c
000001e0: 9cd7 093d f511 3d3d 44a1 253d 1603 3e3d
000001f0: 7cab b5bd e727 08bd aacb 2dbd 6670 4cbc

weight f4 [128, 128]
-0.0023034257 0.0387621 -0.019654972 -0.033708893 -0.04037984 0.042653803 -0.061709605 0.05865398
0.020375451 0.012499175 0.08433516 -0.08907607 -0.010605567 0.019405976 0.016627237 -0.044109195
-0.068889104 0.044207606 -0.02215126 -0.0528086 0.06861094 0.0684711 -0.12349459 0.04592636
-0.08711829 -0.057335846 -0.047083005 -0.08788421 -0.099989496 -0.03139788 0.0006782028 -0.052477878
-0.014265463 0.06379133 -0.008510419 0.038616188 -0.035238843 0.04016181 -0.14018162 0.027361378
-0.023187218 -0.016960781 -0.099182054 0.0926199 0.02154188 0.029491568 0.065164775 -0.008204283
-0.05384424 0.06246036 0.037077285 0.016072556 -0.025476728 0.07864077 -0.023502208 0.08020064
0.045676276 0.0516478 0.005997721 0.0271352 0.01096821 -0.0112455925 -0.023413563 0.0058687255
0.13078861 0.08860724 -0.014177033 0.027290171 -0.0078979805 -0.084089704 -0.066238396 -0.0990903
0.1027041 -0.04684138 -0.084179424 -0.047176667 0.07004341 -0.0043617305 -0.026352642 -0.02864781
-0.0518148 0.029433968 0.005968755 -0.033220343 0.13864289 -0.03246931 -0.0002187824 -0.01426797
-0.011822215 -0.04866577 -0.10542395 0.027840845 -0.127039 0.06044443 0.0054297503 0.0041980296
-0.03794455 -0.030069163 -0.04824271 0.05444518 0.016600924 -0.011986838 -0.007960315 -0.025505528
0.15343346 -0.101941966 -0.0010449517 0.029266423 0.10225514 8.042543e-05 0.019311024 0.015005065
0.059783645 -0.06933448 -0.0033146816 -0.09858466 -0.022671139 -0.03339086 -0.021666836 -0.031060081
0.0008032691 -0.042779118 0.02442421 -0.08509114 0.041300345 0.035071537 -0.021495713 -0.006463016
-0.024950638 -0.0012368446 0.013246093 -0.031327307 -0.07504107 -0.074729346 -0.0009494277 -0.08531599
-0.11868478 -0.101950094 -0.01437763 0.026123697 0.038519397 -0.0025890435 0.03837594 -0.036321603
-0.049959615 -0.05554898 -0.05359625 -0.07996485 -0.010751861 -0.019525876 -0.08346291 0.08548259
-0.012349138 -0.16091727 0.0741013 0.032913115 0.05504014 0.04595481 -0.15831418 -0.07182647
0.14339125 -0.012360292 -0.08927373 -0.07657999 -0.00431864 -0.098405406 0.021586003 -0.077043205
0.02652189 0.043343917 0.0015244709 0.124010816 -0.13147584 -0.13037391 0.108024195 -0.0035802578
-0.017748693 -0.013225635 -0.0052804244 0.044489786 -0.08894975 0.06079914 0.034516897 -0.014018063
-0.023454892 0.02090087 0.11502941 0.009782084 -0.058849934 -0.05355605 0.16488218 0.11073101
0.012713054 0.08440079 0.0068119857 0.0726749 0.054990355 0.05445767 0.011770082 -0.13017659
0.005821609 -0.02301956 0.038735453 -0.01746676 -0.0023168416 -0.039072935 0.008425849 -0.012417455
-0.17414616 0.08502299 0.05982235 0.1211885 0.040216852 0.10496399 0.08173834 -0.013654179
-0.03991042 0.14139469 -0.07341648 0.0010902548 0.05284864 -0.0024141306 -0.08073621 0.058174122
-0.0912537 0.07269617 0.057060327 0.0868506 -0.05035258 0.04739143 -0.09948408 0.06678972
-0.08381885 -0.06865889 0.050555203 0.021755733 -0.024474133 -0.013797023 -0.06659344 -0.09318141
0.10411619 -0.0523422 -0.013877469 -0.011725903 0.14748727 0.104874834 0.12589812 -0.044010144
-0.086170875 0.019176845 -0.013020149 -0.15722507 0.07997855 -0.0004210407 -0.10851694 0.0057804147
00000000: 12f5 16bb 02c5 1e3d 7703 a1bc 5612 0abd
00000010: 5565 25bd c1b5 2e3d 36c3 7cbd 283f 703d
00000020: 6bea a63c 57c9 4c3c eab7 ac3d 846d b6bd
00000030: f9c2 2dbc 48f9 9e3c d835 883c d8ab 34bd
00000040: bb15 8dbd 0913 353d 8f76 b5bc d54d 58bd
00000050: e483 8c3d 933a 8c3d bbea fcbd 471d 3c3d
00000060: 136b b2bd fed8 6abd 1cda 40bd a3fc b3bd
00000070: 4bc7 ccbd 109b 00bd 6bc9 313a 0bf3 56bd
00000080: b0b9 69bc 07a5 823d 496f 0bbc 022c 1e3d
00000090: 9b56 10bd b680 243d c58b 0fbe f824 e03c
000000a0: 1ff3 bdbc 56f1 8abc f61f cbbd 81af bd3d
000000b0: 9978 b03c 4d98 f13c 1c75 853d 426b 06bc
000000c0: c78b 5cbd 6fd6 7f3d 5ade 173d 98aa 833c
000000d0: 92b4 d0bc 690e a13d b487 c0bc 3c40 a43d
000000e0: 0c17 3b3d a58c 533d 8888 c43b a44a de3c
000000f0: 02b4 333c 6f3f 38bc cdcd bfbc 704e c03b
00000100: 73ed 053e b677 b53d c946 68bc a38f df3c
00000110: 8866 01bc 3937 acbd ffa7 87bd dbef cabd
00000120: 8756 d23d bfdc 3fbd 4366 acbd 523c 41bd
00000130: eb72 8f3d d9ec 8ebb 7fe1 d7bc d0ae eabc
00000140: c13b 54bd 811f f13c 8c95 c33b 0e12 08bd
00000150: 67f8 0d3e 8afe 04bd f468 65b9 34c4 69bc
00000160: f7b1 41bc c255 47bd 83e8 d7bd 7c12 e43c
00000170: 8316 02be 9494 773d 0cec b13b a08f 893b
00000180: bf6b 1bbd 9b53 f6bc 269a 45bd e901 5f3d
00000190: a9fe 873c 7164 44bc fb6b 02bc f8f0 d0bc
000001a0: a91d 1d3e f3c6 d0bd c3f6 88ba 23c0 ef3c
000001b0: 256b d13d 13aa a838 2732 9e3c ced7 753c
000001c0: b2df 743d 3cff 8dbd 213b 59bb c1e6 c9bd
000001d0: d3b8 b9bc dbc4 08bd a67e b1bc b671 febc
000001e0: 7a92 523a 2839 2fbd 4815 c83c 4344 aebd
000001f0: 8d2a 293d 2ca7 0f3d c717 b0bc b5c7 d3bb
00000200: 4865 ccbc 9e1d a2ba 2406 593c 1051 00bd
00000210: 22af 99bd b30b 99bd 04e3 78ba 26ba aebd
00000220: 0211 f3bd 36cb d0bd 2790 6bbc 5d01 d63c
00000230: 84c6 1d3d f1ac 29bb 1730 1d3d f6c5 14bd
00000240: 74a2 4cbd 5487 63bd be87 5bbd 9cc4 a3bd
00000250: 9328 30bc bbf4 9fbc 9aee aabd 7f11 af3d
00000260: 0a54 4abc 7fc7 24be 6cc2 973d e7cf 063d
00000270: c571 613d 1c3b 3c3d 1d1d 22be c219 93bd
00000280: 28d5 123e d282 4abc 25d5 b6bd f8d5 9cbd
00000290: 6183 8dbb c688 c9bd 21d5 b03c d4c8 9dbd
000002a0: 6f44 d93c 6489 313d c1d0 c73a 62f9 fd3d
000002b0: 9aa1 06be bd80 05be ca3b dd3d c2a2 6abb
000002c0: b565 91bc 55b0 58bc 6907 adbb ec3a 363d
000002d0: 492b b6bd 8508 793d 9761 0d3d 05ac 65bc
000002e0: 7924 c0bc 4d38 ab3c 8a94 eb3d 0945 203c
000002f0: a10c 71bd 975d 5bbd e0d6 283e f1c6 e23d
00000300: 6a4a 503c 52da ac3d 1437 df3b 94d6 943d
00000310: 913d 613d 010f 5f3d 4dd7 403c 034d 05be
00000320: 32c3 be3b 8493 bcbc 11a9 1e3d 7316 8fbc
00000330: 27d6 17bb f10a 20bd 920c 0a3c 9572 4bbc
00000340: 5f53 32be 8920 ae3d 4808 753d ad31 f83d
00000350: 6dba 243d 5cf7 d63d 6e66 a73d c7b5 5fbc
00000360: 1c79 23bd c5c9 103e 615b 96bd e1e6 8e3a
00000370: d177 583d 6436 1ebb 0759 a5bd fd47 6e3d
00000380: 38e3 babd bbe1 943d 17b8 693d bade b13d
00000390: 823e 4ebd 841d 423d 4fbe cbbd 0cc9 883d
000003a0: 38a9 abbd 089d 8cbd f912 4f3d 1439 b23c
000003b0: fa7d c8bc e90c 62bc 2462 88bd e5d5 bebd
000003c0: de3a d53d c664 56bd 535e 63bc 001e 40bc
000003d0: e706 173e 9ec8 d63d 70eb 003e fb43 34bd
000003e0: 5b7a b0bd c218 9d3c 7752 55bc 9cff 20be
000003f0: cbcb a33d 20bf dcb9 213e debd a269 bd3b

bias f4 [128]
-0.11319221 0.06020443 -0.0015410704 -0.124662705 0.0032230748 0.089773096 -0.09937261 -0.0033118427
-0.021789907 -0.054105703 -0.02928467 -0.13903251 -0.0725858 0.020417439 -0.02350634 -0.037302356
0.13128673 -0.038740907 -0.05582902 -0.058335513 0.033137742 -0.043520782 -0.032648433 -0.13226484
0.02972045 -0.02204009 -0.044092655 0.017015347 -0.05867696 -0.048495624 -0.0626917 -0.04937527
-0.044735417 0.052890833 0.0353519 0.022707574 -0.0477462 -0.1387387 -0.03303002 0.02334708
-0.10448757 -0.05255872 -0.004632686 -0.09153754 -0.06045614 -0.0060520014 -0.13705845 -0.07309337
0.072124444 0.06491723 0.039013077 0.05896421 -0.03068001 0.0016379993 -0.11992939 -0.043082915
0.06537274 -0.066990696 -0.07569595 0.117042646 0.0072002416 0.09591408 -0.08574995 -0.07930713
-0.07347021 0.0511226 0.0022294174 0.0073615527 -0.0021050354 -0.10246955 0.004941453 0.019138783
-0.053588595 -0.065188974 -0.14338832 -0.05334534 -0.09650124 0.05732053 0.0430234 0.0310578
7.105235e-05 -0.07002906 -0.06589492 -0.10999117 -0.09397165 -0.10624455 -0.053395584 -0.08692625
-0.010240675 0.0028772687 -0.07411532 -0.07654396 -0.051313113 -0.06275387 0.02265378 -0.11893708
0.000107374966 -0.064261265 -0.06027899 0.03227985 -0.035139274 -0.029282967 -0.010175046 -0.05425535
-0.07215944 0.02426738 0.05975869 -0.16672729 -0.017829454 -0.08244557 -0.099924214 -0.06241153
-0.09982115 -0.03236497 -0.13610911 -0.11781921 -0.00565191 -0.03407958 -0.10019509 0.032967184
-0.029767215 -0.088230126 0.013126557 -0.028373523 0.03647417 -0.0883075 -0.11486315 -0.058418535
00000000: 51d1 e7bd ec98 763d befd c9ba 294f ffbd
00000010: 393a 533b f5da b73d de83 cbbd 800b 59bb
00000020: bf80 b2bc f19d 5dbd 67e6 efbc 8a5e 0ebe
00000030: dda7 94bd 7942 a73c 5e90 c0bc 5bca 18bd
00000040: 0770 063e c9ae 1ebd f8ac 64bd 38f1 6ebd
00000050: 71bb 073d d942 32bd 5dba 05bd 6f70 07be
00000060: 4d78 f33c 6b8d b4bc 809a 34bd c563 8b3c
00000070: 4157 70bd 59a3 46bd 8264 80bd b93d 4abd
00000080: 7c3c 37bd 0fa4 583d 27cd 103d 3c05 ba3c
00000090: 8591 43bd 8511 0ebe 7c4a 07bd 6042 bf3c
000000a0: 94fd d5bd d047 57bd c9cd 97bb 0978 bbbd
000000b0: dca0 77bd de4f c6bb 0d59 0cbe fab1 95bd
000000c0: fbb5 933d 53f3 843d 2dcc 1f3d 7584 713d
000000d0: a554 fbbc 23b2 d63a 8a9d f5bd b677 30bd
000000e0: 25e2 853d 6b32 89bd 7a06 9bbd 0eb4 ef3d
000000f0: 01f0 eb3b 9a6e c43d ab9d afbd c76b a2bd
00000100: 8d77 96bd ee65 513d 6b1b 123b 2e39 f13b
00000110: a2f4 09bb 8edb d1bd eaeb a13b f0c8 9c3c
00000120: b77f 5bbd cc81 85bd 63d4 12be a580 5abd
00000130: 71a2 c5bd efc8 6a3d 4e39 303d ed6c fe3c
00000140: f101 9538 656b 8fbd eaf3 86bd 0d43 e1bd
00000150: 3574 c0bd be96 d9bd 54b5 5abd 6406 b2bd
00000160: 81c8 27bc 8f90 3c3b c6c9 97bd 14c3 9cbd
00000170: b32d 52bd 1a85 80bd 6c94 b93c 4995 f3bd
00000180: 7f2e e138 699b 83bd 1ae7 76bd e037 043d
00000190: 33ee 0fbd d5e2 efbc 3cb5 26bc dc3a 5ebd
000001a0: 54c8 93bd 62cc c63c 87c5 743d 8fba 2abe
000001b0: 130f 92bc 39d9 a8bd 11a5 ccbd 3ca3 7fbd
000001c0: 086f ccbd 2191 04bd 3060 0bbe 334b f1bd
000001d0: a833 b9bb 0897 0bbd 1533 cdbd 9908 073d
000001e0: 60da f3bc ffb1 b4bd c510 573c 976f e8bc
000001f0: f065 153d 90da b4bd 5f3d ebbd 4648 6fbd

weight f4 [23, 128]
-0.003214991 0.056176554 0.00014072453 0.0806008 -0.017860942 -0.006788934 0.028322315 -0.026230905
-0.011866347 -0.041941497 -0.012985233 0.0024608304 0.032447975 0.029150456 -0.03527049 0.019064795
-0.07111967 0.07506736 -0.024069851 0.0053218487 -0.025609748 0.043959223 0.056510687 -0.0027902615
0.035144318 -0.01246066 -0.0053482703 0.07052177 0.06352107 0.008832594 0.014283623 -0.029103134
-0.024637 -0.030032577 0.041219942 -0.013619073 -0.011912753 0.029556105 -0.017326688 -0.012286833
-0.036168806 -0.021423982 0.0015031069 -0.009369149 0.07304295 -0.049513157 -0.041104093 -0.023036188
0.0122875525 -0.013241708 -0.00839372 0.042141348 0.029868983 0.023876663 -0.03371959 0.024875091
0.034926053 -0.047354996 0.072400585 -0.07744391 -0.06438861 0.067594364 0.03677744 0.073427625
0.04818087 0.047224667 0.089516304 -0.043664202 0.0487988 0.025002057 0.000679872 0.016440311
-0.029369606 0.015197869 -0.039378297 -0.076684035 -0.036748104 0.00265821 0.021075057 -0.033629388
0.014180636 -0.013004504 -0.054666996 0.0062526395 -0.074637055 -0.023185706 0.019119019 -0.04804781
0.058209307 -0.028615111 0.097058736 -0.07833003 0.05408711 -0.052190695 -0.01713226 0.07350301
-0.023356069 -0.0132610565 0.025839392 0.03970415 0.041468307 0.06399856 -0.022635393 0.016567115
-0.03319511 -0.008263298 -0.08983966 0.011483077 -0.062733114 -0.0407818 0.06598725 -0.026758023
0.029351234 0.033996545 0.00086070737 0.024877364 -0.012695138 -0.034140345 0.018558186 -0.070651524
0.032898966 0.010220851 -0.027034113 -0.041700505 0.0619643 0.012532168 0.07036034 0.026314275
0.06625811 -0.0080829915 0.02946095 0.014962131 0.025932329 -0.07586951 0.007531505 0.012460417
-0.0066454187 0.040311813 -0.01807303 0.038509913 -0.005090386 0.0075046113 -0.05782402 -0.055729084
-0.02822941 -0.042259224 0.0050088875 -0.048943844 0.035003223 0.013350784 0.012492731 -0.041925345
-0.057331964 -0.016280487 0.029883841 -0.03552477 0.0641755 0.023163458 0.0077125444 0.0023742167
0.048208706 -0.047394194 -0.004755843 0.014476939 -0.002980076 0.031545755 -0.020720778 -0.019697862
0.07355373 -0.046406545 0.04368284 0.045136582 -0.0155645 0.0061769253 -0.013510919 -0.051586032
-0.05171418 0.010130264 -0.0014331216 -0.004872831 -0.0009173687 0.025942227 0.0018767196 -0.02512506
-0.06550521 -0.012576732 0.063236915 0.0047142603 0.050977282 0.045604277 0.045205705 0.041085903
0.044662595 -0.031518202 0.015045963 0.057755157 0.047884066 0.022255383 0.022117335 0.003091424
-0.054500878 0.037240226 0.03305 0.021463292 0.0056508314 0.055835415 -0.02364833 0.016956968
-0.014339334 0.060074452 0.05414735 0.029787878 0.051295966 0.060919996 -0.025256043 -0.018631425
0.016072948 0.02992749 -0.06462156 0.05434351 0.030971147 -0.02224122 -0.008819917 0.02275039
-0.08948598 -0.019259889 0.014906049 0.042505212 -0.067355275 0.0426882 0.030170025 0.014015919
0.030517735 0.02999429 0.016124943 -0.020709254 -0.062761456 0.039942563 0.04878366 0.029218335
-0.048111346 0.018993586 0.007265751 0.07019447 -0.0017312755 -0.018770995 -0.026247598 0.06750062
0.054185234 -0.001232766 0.108895294 0.024951648 0.005192233 0.03439508 -0.06760359 -0.04566421
00000000: 99b2 52bb 6319 663d 748f 1339 0812 a53d
00000010: 1c51 92bc b575 debb 3304 e83c 32e2 d6bc
00000020: 116b 42bc d9ca 2bbd 04c0 54bc e245 213b
00000030: 2be8 043d f0cc ee3c ca77 10bd c62d 9c3c
00000040: 31a7 91bd ebbc 993d 232e c5bc e762 ae3b
00000050: 89cb d1bc 960e 343d c077 673d d2dc 36bb
00000060: 7df3 0f3d cc27 4cbc 8b40 afbb b86d 903d
00000070: 5617 823d 96b6 103c db05 6a3c b269 eebc
00000080: 89d3 c9bc e106 f6bc 3ed6 283d 8822 5fbc
00000090: b52d 43bc a51f f23c b3f0 8dbc b64e 49bc
000000a0: be25 14bd 5981 afbc e603 c53a 0f81 19bc
000000b0: 8b97 953d 4fce 4abd c45c 28bd 63b6 bcbc
000000c0: bb51 493c c0f3 58bc d085 09bc 689c 2c3d
000000d0: ccaf f43c fe98 c33c 8e1d 0abd d9c6 cb3c
000000e0: 9f0e 0f3d 50f7 41bd c246 943d ea9a 9ebd
000000f0: 2dde 83bd ea6e 8a3d f1a3 163d 3961 963d
00000100: 4e59 453d a76e 413d 5354 b73d 3cd9 32bd
00000110: 40e1 473d 1dd1 cc3c 7039 323a d5ad 863c
00000120: 8798 f0bc 7c00 793c 234b 21bd 850c 9dbd
00000130: 2e85 16bd 5d35 2e3b 99a5 ac3c f8be 09bd
00000140: e655 683c d810 55bc 80ea 5fbd f1e2 cc3b
00000150: 50db 98bd f3ef bdbc 7d9f 9c3c c8cd 44bd
00000160: e26c 6e3d 3d6a eabc bbc6 c63d 7f6b a0bd
00000170: 728a 5d3d e9c5 55bd f458 8cbc bf88 963d
00000180: 3a55 bfbc e744 59bc 22ad d33c d2a0 223d
00000190: acda 293d ad11 833d dc6d b9bc c2b7 873c
000001a0: 98f7 07bd c962 07bc dbfd b7bd 8423 3c3c
000001b0: 387a 80bd d10a 27bd 5324 873d a433 dbbc
000001c0: 0072 f03c f63f 0b3d 18a1 613a 9dcb cb3c
000001d0: 45ff 4fbc bfd6 0bbd 5607 983c bfb1 90bd
000001e0: 11c1 063d 5b75 273c a576 ddbc 26ce 2abd
000001f0: 47ce 7d3d b953 4d3c 1519 903d 0991 d73c
00000200: 55b2 873d 866e 04bc 1758 f13c ba23 753c
00000210: 0970 d43c 7961 9bbd d8ca f63b c726 4c3c
00000220: d0c1 d9bb 001e 253d e40d 94bc 92bc 1d3d
00000230: 41cd a6bb 3ee9 f53b e1d8 6cbd 2e44 64bd
00000240: 5d41 e7bc 0218 2dbd 9821 a43b 5779 48bd
00000250: 8a5f 0f3d 3fbd 5a3c 50ae 4c3c e9b9 2bbd
00000260: ecd4 6abd a85e 85bc f5ce f43c 6c82 11bd
00000270: 726e 833d 4bc1 bd3c 83b9 fc3b bf98 1b3b
00000280: 7e76 453d 6a20 42bd e7d6 9bbb af30 6d3c
00000290: 614d 43bb 1f36 013d 9fbe a9bc 695d a1bc
000002a0: 57a3 963d ca14 3ebd c7ec 323d 23e1 383d
000002b0: 3f02 7fbc ce67 ca3b e75c 5dbc e04b 53bd
000002c0: 3fd2 53bd 68f9 253c 95d7 bbba 45ac 9fbb
000002d0: 927b 70ba cb84 d43c 43fc f53a 12d3 cdbc
000002e0: 9827 86bd a30e 4ebc 5b82 813d 157a 9a3b
000002f0: 8ecd 503d 8dcb 3a3d 9e29 393d b149 283d
00000300: 20f0 363d 3b19 01bd 5883 763c ac90 6c3d
00000310: 1522 443d ec50 b63c 6a2f b53c 7d99 4a3b
00000320: 503c 5fbd 3589 183d 705f 073d c9d3 af3c
00000330: 9c2a b93b adb3 643d 24ba c1bc 57e9 8a3c
00000340: 87ef 6abc a110 763d 9dc9 5d3d b505 f43c
00000350: b81b 523d 3f87 793d c3e5 cebc eea0 98bc
00000360: 6aab 833c 7f2a f53c 4f58 84bd 4d97 5e3d
00000370: 34b7 fd3c 3833 b6bc 6a81 10bc 075f ba3c
00000380: 6d44 b7bd eac6 9dbc 8038 743c f219 2e3d
00000390: 90f1 89bd d2d9 2e3d 2127 f73c 06a3 653c
000003a0: 5400 fa3c 96b6 f53c 7518 843c 74a6 a9bc
000003b0: 1489 80bd d09a 233d 60d1 473d 4a5b ef3c
000003c0: 6710 45bd 7098 9b3c 8915 ee3b 1ec2 8f3d
000003d0: f7eb e2ba a1c5 99bc 3405 d7bc c43d 8a3d
000003e0: 56f1 5d3d c394 a1ba 7f04 df3d 6667 cc3c
000003f0: 9b23 aa3b dbe1 0c3d c073 8abd 650a 3bbd

bias f4 [23]
-0.040539153 0.019427095 0.018054916 0.07761543 -0.077397935 -0.03740152 0.0492019 0.07551777
0.04241877 0.08991792 0.045384202 -0.058431245 -0.07286529 0.050693348 0.016012602 -0.063724086
0.06175958 0.040423233 0.014837456 0.060854834 -0.03998212 -0.06343124 -0.011977136
00000000: 620c 26bd 9225 9f3c e7e7 933c d7f4 9e3d
00000010: cf82 9ebd 5632 19bd ee87 493d 10a9 9a3d
00000020: 4ebf 2d3d e326 b83d c9e4 393d 9a55 6fbd
00000030: 663a 95bd d4a3 4f3d dc2c 833c c681 82bd
00000040: 9df7 7c3d d592 253d cd18 733c eb42 793d
00000050: 4bc4 23bd 3de8 81bd c03b 44bc
