deployment/policy_old.pt (torch, 299424 bytes, 8 tensors)

weight f4 [256, 75]
0	0xbf7a9a8e	-0.9789208
1	0x3f3c0521	0.73445326
2	0x3c906e53	0.017630732
3	0x3de9007b	0.11377045
4	0x3d5bd20c	0.053667113
5	0x3cdeb413	0.027185475
6	0xbdda3003	-0.10653689
7	0xbf1fcce5	-0.6242202
8	0xbe0fc875	-0.14041312
9	0xbf2a3ab4	-0.66495824
10	0x3ebdb59b	0.37052616
11	0x3e22b390	0.1588881
12	0xbe715089	-0.23565878
13	0xbe7d410d	-0.24731846
14	0x3df326fe	0.118726715
15	0x3e82b2ea	0.25527126
16	0xbcb1d8f1	-0.021709891
17	0xbafb0859	-0.0019152268
18	0x3f0dcff0	0.5539541
19	0x3dec8377	0.115485124
20	0xbe12b62c	-0.14327306
21	0x3e25ce03	0.16191868
22	0x3e61c77b	0.22048752
23	0xbe88c55d	-0.26713076
24	0x3de98df0	0.114040256
25	0xbe3b0bbb	-0.18266194
26	0x3ca47c04	0.020078667
27	0x3cfbff58	0.030761406
28	0xbc57f1a5	-0.013180171
29	0x3d53f289	0.05174497
30	0xbb92b29b	-0.004476858
31	0x3d7f0cf8	0.062268227
32	0xbd23f9ed	-0.04003327
33	0x3d46d973	0.04854722
34	0xbd0a4d07	-0.033764865
35	0xbca56d77	-0.020193798
36	0xbbdf24c4	-0.0068098027
37	0xbcf0505a	-0.02933519
38	0x3c63c9d9	0.013903105
39	0xbd689c4b	-0.056789678
40	0xbc350a2f	-0.011049791
41	0xbc7754dd	-0.015095917
42	0xbd260182	-0.04052878
43	0x3db6b1fa	0.08920665
44	0xbbf88292	-0.0075839246
45	0xbcc61093	-0.024177825
46	0xbd94f9d8	-0.072742164
47	0x3b897a6c	0.004195502
48	0x3d6ae37a	0.057345845
49	0xbd2721aa	-0.04080359
50	0xbdd37c8b	-0.10326489
51	0x3c8bb62b	0.017054638
52	0xbd0d6ae3	-0.034525763
53	0xbe2105c1	-0.15724851
54	0xbe046526	-0.1292921
55	0xbe61a133	-0.22034149
56	0xbddd379e	-0.10801624
57	0x3d1e5c06	0.03866198
58	0x3cfdd192	0.03098372
59	0x3ce0ec69	0.02745648
60	0x3d81eba7	0.06343775
61	0xbbc4c414	-0.0060048196
62	0x3d34cfe9	0.04414359
63	0xbc1e347b	-0.009656067
64	0x3e58a76e	0.2115762
65	0x3cebadaa	0.028769333
66	0xbdda8ac5	-0.106709994
67	0x3cf06d91	0.02934912
68	0xbd842475	-0.06452266
69	0x3c83de0a	0.016097087
70	0x3bdd33d7	0.0067505646
71	0xbd7155b9	-0.058919642
72	0x3db03833	0.08604469
73	0x3dbb1963	0.091357015
74	0x3d815114	0.063142926
75	0xbf112568	-0.566977
76	0x3e497f39	0.19677438
77	0x3da26ab4	0.07930508
78	0x3d7a58fd	0.061120022
79	0xbec6255a	-0.38700372
80	0xbc9db75b	-0.01925247
81	0xbedf58a4	-0.43622315
82	0x3e12636b	0.14295737
83	0xbdfa0e35	-0.12209741
84	0xbee28332	-0.4424072
85	0x3e66d4d8	0.22542131
86	0x3c36501f	0.011127501
87	0xbdd2c846	-0.102921054
88	0xbea8f6df	-0.33000848
89	0xbd212168	-0.0393385
90	0xbd1023d4	-0.03519042
91	0xbd875725	-0.066084184
92	0x3e4a9980	0.19785118
93	0x3f26c494	0.65143704
94	0xbdd94fe6	-0.106109425
95	0xbd48d463	-0.049030673
96	0x3ede4563	0.43412313
97	0x3e69d711	0.22835948
98	0xbc7379c0	-0.01486057
99	0x3d848722	0.06471087
100	0xbeb1b755	-0.34710184
101	0xbd28cc1d	-0.041210283
102	0xbe505f77	-0.20348917
103	0xbe0b12c7	-0.13581382
104	0xbd8d7fac	-0.06909117
105	0x3d23da64	0.040003195
106	0x3d006818	0.03134927
107	0x3dd8ec2d	0.10591922
108	0x3d965864	0.07341078
109	0x3ad37124	0.0016131741
110	0x3b8ea724	0.004353421
111	0xbca65fb0	-0.0203093
112	0x3c9d346f	0.019190041
113	0x3c99c2b3	0.018769598
114	0x3d78c5cc	0.06073551
115	0x3d830add	0.063985564
116	0xbe2d1e94	-0.16906196
117	0x3c848a5a	0.016179252
118	0x3cd823d1	0.026384266
119	0xbb6abb06	-0.003581704
120	0xbc372935	-0.011179258
121	0xbc88c766	-0.016696643
122	0x3c1defe2	0.009639712
123	0x3cfd8344	0.030946381
124	0x3b34a62c	0.0027564866
125	0xbd8a9486	-0.0676661
126	0x3d9e1120	0.0771811
127	0x3df58c0b	0.11989602
128	0x3e8e203f	0.27758977
129	0xbe152b8a	-0.1456739
130	0xbdfd1420	-0.12357354
131	0x3df96ef5	0.121793665
132	0x3b85b71a	0.0040806653
133	0xbdd3f9af	-0.10350358
134	0xbe2d5d5f	-0.1693015
135	0xbccefc34	-0.025266744
136	0xbe0065fc	-0.12538904
137	0x3d5fcfe6	0.054641627
138	0xbe370c7d	-0.17875858
139	0xbe0f0704	-0.1396752
140	0x3cb69e24	0.022292204
141	0xbdb3270d	-0.08747683
142	0xbdbb617f	-0.09149455
143	0x3d451f3a	0.048125483
144	0xbc9aeeb0	-0.018912643
145	0xbccdf877	-0.025142891
146	0xbd421fcd	-0.04739361
147	0xbda4d73f	-0.080488674
148	0xbd93625e	-0.071964964
149	0xbded3f04	-0.11584285
150	0xbedf2a97	-0.4358718
151	0x3ef13bb7	0.4711587
152	0x3dae38a3	0.08506896
153	0x3e0de30c	0.13856143
154	0x3e99b838	0.3002336
155	0xbe0b6157	-0.13611351
156	0xbe2eac49	-0.17057909
157	0x3f09f740	0.538929
158	0xbe8fdaff	-0.28096768
159	0xbec97cd0	-0.39353037
160	0xbf0888e1	-0.5333386
161	0x3e65dcf6	0.22447571
162	0x3e88d907	0.2672808
163	0xbe60dadf	-0.21958493
164	0x3ea95609	0.33073452
165	0xbe2db79f	-0.16964577
166	0xbe2eac0c	-0.17057818
167	0x3f4d4b3d	0.8019293
168	0x3ef5d4f4	0.48014033
169	0x3da34fd6	0.07974212
170	0x3d9864bc	0.074410886
171	0xbe6b9907	-0.23007594
172	0x3b3aeb37	0.0028521547
173	0x3d1c44b7	0.03815147
174	0x3e1ad2a1	0.15119411
175	0xbd309be0	-0.043117404
176	0xbc458c81	-0.0120574245
177	0x3d8f2706	0.06989865
178	0xbc40a603	-0.01175833
179	0x3d1900d6	0.037354313
180	0x3d8b395b	0.06798049
181	0xbd1968b5	-0.037453372
182	0x3d131222	0.035905965
183	0x3cad6426	0.021165919
184	0x3c3cdfb5	0.011527945
185	0x3b4a6c82	0.003088743
186	0xbc59de27	-0.013297594
187	0x3d63cef9	0.055617306
188	0xbdcf1364	-0.1011112
189	0x3d8aca8e	0.067769155
190	0xbd63f4b0	-0.055653274
191	0x3cef41af	0.029206125
192	0xbb87b634	-0.0041415934
193	0x3d5f4356	0.054507576
194	0x3b8a116a	0.0042135017
195	0xbc6455d5	-0.01393648
196	0x3d5f4429	0.054508362
197	0x3c2d08e4	0.010561202
198	0x3d24832a	0.04016415
199	0x3db0633d	0.08612678
200	0xb90b20e4	-0.00013268326
201	0xbb935e25	-0.004497307
202	0xbdd86060	-0.10565257
203	0x3dd2ca64	0.10292509
204	0xbcb95e7c	-0.022628061
205	0x3e68a8fb	0.22720711
206	0xbe10a493	-0.1412528
207	0x3c08f6a7	0.008359588
208	0x3d02c3b2	0.03192491
209	0xbde8541e	-0.11344169
210	0x3d2b3868	0.04180184
211	0x3d448f1b	0.04798804
212	0xbd33e0fd	-0.043915737
213	0x3dd2afe7	0.10287457
214	0xbe54ac42	-0.20768836
215	0xbc1fdfbd	-0.009757933
216	0xbd01ee60	-0.031721473
217	0x3dd10ae7	0.102071576
218	0xbd288834	-0.04114552
219	0x3c9a354c	0.018824242
220	0x3cf9ef38	0.030509576
221	0xbddc6043	-0.10760548
222	0xbd7564f9	-0.05991075
223	0x3d91f104	0.07126048
224	0x3e126495	0.14296181
225	0xbf00d033	-0.50317687
226	0x3ed8f77d	0.4237632
227	0xbe36ce2d	-0.17852087
228	0xbe1ebccb	-0.15501706
229	0x3d0389ae	0.032113723
230	0x3c546064	0.012962434
231	0x3dfdda6b	0.123951755
232	0x3e12338c	0.14277476
233	0xbebe15b1	-0.37125924
234	0xbf5d8939	-0.8653751
235	0x3eae269b	0.3401383
236	0x3e451ff0	0.19250464
237	0x3dbefbfc	0.09325406
238	0x3e2e731e	0.17036101
239	0x3efa5243	0.48890886
240	0x3dadc1da	0.0848424
241	0xbeb839e7	-0.35981676
242	0x3d045651	0.03230888
243	0x3f6016d2	0.8753482
244	0x3e0178f9	0.12643804
245	0xbe055074	-0.13018972
246	0x3e90dec8	0.2829497
247	0x3e960211	0.29298452
248	0x3e73f324	0.2382322
249	0xbde05f6b	-0.109556995
250	0xbcc1950e	-0.023630645
251	0xbe86d984	-0.26337826
252	0xbe6e459a	-0.23268738
253	0x3cc636e6	0.0241961
254	0x3c5b1861	0.013372512
255	0xbd5d9a11	-0.054102007

bias f4 [256]
0	0xbd71a810	-0.058998168
1	0xbe2fbe3c	-0.17162412
2	0x3d99bf84	0.07507232
3	0x3dad331f	0.08457016
4	0x3d585b69	0.05282155
5	0x3dd87443	0.1056905
6	0xb7a7d023	-2.0004873e-05
7	0xbd3ab218	-0.04558
8	0xbdb0501c	-0.0860903
9	0xbe16b839	-0.14718713
10	0xbd4fb0d4	-0.050705746
11	0x3d8cf09c	0.0688183
12	0xbbf60890	-0.007508345
13	0xbbea1c51	-0.007144489
14	0xbbb04098	-0.005378794
15	0xbd478f54	-0.048720673
16	0xbcc1cb48	-0.023656502
17	0xbde686be	-0.11256169
18	0xbdade662	-0.08491208
19	0x3cb54929	0.022129612
20	0xbd25245f	-0.04031789
21	0xbd6651c5	-0.056230325
22	0x3d85f027	0.06539946
23	0xbc061ac8	-0.008185096
24	0xbd1cb432	-0.038257785
25	0xbe4c36d4	-0.1994279
26	0x3bac6793	0.0052613704
27	0x3d171164	0.03688182
28	0x3c4afa21	0.012388737
29	0x3d80c561	0.06287647
30	0x3e363b14	0.17795974
31	0x3cb75d7d	0.022383446
32	0xbdbefd27	-0.09325629
33	0x3c12a97e	0.008951543
34	0xbe167830	-0.14694285
35	0xbdbe3451	-0.09287322
36	0xbd570b40	-0.052500963
37	0x3d93340f	0.07187664
38	0xbdfb63f0	-0.12274921
39	0xbd9cc70e	-0.07655154
40	0xbd384b52	-0.044993706
41	0x3d48cd81	0.04902411
42	0x3bf8fd38	0.0075985454
43	0x3d606e98	0.05479297
44	0xbe12e185	-0.14343841
45	0xbcab0bb1	-0.020879598
46	0x3dd13850	0.10215819
47	0xbd755cee	-0.059903078
48	0x3c0f5d4d	0.008750272
49	0x3d024fb5	0.031814296
50	0xbd97791f	-0.07396149
51	0x3b08af26	0.002085635
52	0x3cb78530	0.022402376
53	0x3dc532ba	0.09628816
54	0xbda2faf2	-0.0795802
55	0x3b18f864	0.0023341412
56	0x3d069240	0.03285432
57	0xbd182ef7	-0.037154164
58	0xbdb675b3	-0.08909168
59	0xbc9c137b	-0.019052258
60	0x3d9cf8bd	0.076646306
61	0xbd44c4dd	-0.048039306
62	0x3db5a1a6	0.088687226
63	0x3c7d80b0	0.015472576
64	0xbdaa523a	-0.08316465
65	0x3d6647cd	0.05622082
66	0xbe3e0510	-0.18556619
67	0x3d703298	0.058642
68	0xbc7148e3	-0.01472685
69	0xbd631d60	-0.055447936
70	0xbc241af9	-0.010016196
71	0x3abedb15	0.0014561141
72	0xbad3b433	-0.0016151726
73	0x3c763dde	0.015029399
74	0xbcab751e	-0.02092987
75	0xbdff9eb8	-0.12481445
76	0xbdd85a18	-0.10564059
77	0x3dd7822d	0.10522876
78	0xbdaf4876	-0.08558743
79	0xbdcb80d2	-0.0993668
80	0xbe2a169c	-0.16610187
81	0x3d246d5d	0.04014336
82	0xbdfe1e92	-0.124081746
83	0x3d9291c3	0.07156708
84	0xbe15901f	-0.14605759
85	0x3dfb9634	0.12284508
86	0xbe1716a3	-0.14754729
87	0xbda9fe94	-0.0830051
88	0xba9128e6	-0.0011074811
89	0x3d672b08	0.056437522
90	0xbc646f3d	-0.013942537
91	0x3df75c1d	0.12078116
92	0xbc8f86b2	-0.017520282
93	0x3c317449	0.010830947
94	0xbcc9e39a	-0.024644662
95	0xbe0d993f	-0.1382799
96	0x3da6370a	0.081159666
97	0xbe1684fc	-0.14699167
98	0xbdb0b9ea	-0.0862921
99	0x3c947e3d	0.018126601
100	0xbe0c5418	-0.13703954
101	0x3c164a92	0.009173052
102	0xbe098dfb	-0.13433068
103	0x3c3925ca	0.0113005135
104	0xbcd372a2	-0.025811497
105	0x3cfea85a	0.031086136
106	0x3d63fc16	0.05566033
107	0xbe3a1f96	-0.18176112
108	0xbe464081	-0.19360544
109	0x3d9263d1	0.07147945
110	0x3cce9858	0.025219128
111	0xbe6928ae	-0.22769424
112	0x3e1c22ec	0.15247697
113	0x3d0731ff	0.033006664
114	0xbe06877c	-0.1313762
115	0x3c091341	0.008366407
116	0xbc56ddc4	-0.0131143965
117	0x3dcc980f	0.099899404
118	0x3c0a3012	0.008434312
119	0xbd454353	-0.04815991
120	0x3cdef5c6	0.027216803
121	0x3ca81830	0.020519346
122	0x3dfc623f	0.123234265
123	0xbe52ea32	-0.20597151
124	0x3a6939c9	0.0008896855
125	0x3e222d5c	0.15837616
126	0xbdd64d6d	-0.104639865
127	0xbddc097d	-0.10743997
128	0x3e0b8a33	0.13626938
129	0x3b7398d2	0.0037169945
130	0xbd84e19c	-0.06488344
131	0xbba5d11b	-0.0050603277
132	0x3d2ebb48	0.042659074
133	0x3caa381e	0.020778712
134	0x3d063f1a	0.032775022
135	0x3dcdda20	0.1005137
136	0xbdd049e2	-0.10170342
137	0xbc342600	-0.010995388
138	0xbe0662d6	-0.1312364
139	0x3d453d79	0.048154328
140	0xbdc3b8b8	-0.09556717
141	0xbd5e97c4	-0.054343954
142	0x3de02871	0.109452136
143	0xbd43567d	-0.047689904
144	0x3c772032	0.01508336
145	0x3d9928fa	0.07478519
146	0x3dc7a406	0.09748082
147	0xbdbccb43	-0.092184566
148	0xbda3a9a9	-0.079913445
149	0xbe0daf1c	-0.1383633
150	0xbd8151f6	-0.06314461
151	0xbe034594	-0.1281951
152	0xbcf26427	-0.029588772
153	0xbab9c739	-0.0014173753
154	0x3d1664e3	0.036717307
155	0x3dc06e39	0.09396023
156	0xbbba100b	-0.005678182
157	0xbd8d3b6f	-0.06896102
158	0xbe255126	-0.16144237
159	0xbdcfa8c0	-0.101396084
160	0x3d2da3e1	0.042392615
161	0xbd818fe5	-0.06326274
162	0xbdedcaad	-0.11610923
163	0x3c27b0a4	0.0102349855
164	0xbd0f37da	-0.034965374
165	0x3d6f06a5	0.058355946
166	0x3dc0c43e	0.0941243
167	0xbbb7ef24	-0.0056132246
168	0x3d002940	0.03128934
169	0xbe2c0d8b	-0.16802041
170	0xbcadc6e5	-0.021213004
171	0x3d262710	0.040564597
172	0xbd73fcd8	-0.059567302
173	0xbe1a9c89	-0.15098776
174	0xbdf8fd4b	-0.12157687
175	0xbd473a79	-0.04863975
176	0x3da7ed28	0.08199531
177	0x3da7696a	0.08174403
178	0x3d3f8bed	0.046764303
179	0x3bb966cc	0.0056580063
180	0xbd98ccbe	-0.074609265
181	0x3db766eb	0.08955177
182	0xbc005ef0	-0.007835135
183	0xbe039b9c	-0.12852329
184	0xbe1558db	-0.14584677
185	0xbbc2179b	-0.005923224
186	0xbdbbc511	-0.09168447
187	0xbd04cdf9	-0.032422993
188	0xbd054f0f	-0.0325461
189	0x3c497054	0.0122948475
190	0x3c886d3f	0.016653655
191	0xbb62a21d	-0.003458149
192	0x3c9311bc	0.017952792
193	0x3b8d15f6	0.0043055965
194	0x3cce401f	0.02517706
195	0xbdb11659	-0.086468406
196	0x3d95933d	0.07303474
197	0xbdd206ee	-0.10255228
198	0xbe174fff	-0.1477661
199	0xbdcecaec	-0.10097298
200	0xbdfd3304	-0.12363246
201	0x3c241333	0.010014343
202	0xbcc89118	-0.024483249
203	0xbdc51be2	-0.09624459
204	0xbe38348d	-0.17988797
205	0xbba8be81	-0.005149663
206	0xbcb24a22	-0.021763865
207	0xbd0ef4df	-0.034901496
208	0x3bc38ea5	0.0059679323
209	0xbde2aeb4	-0.11068478
210	0x3bd7bb0a	0.006583576
211	0x3ce13b1c	0.027494006
212	0xbd157d69	-0.036496554
213	0xbd1bb1b3	-0.038011264
214	0xbe1f1298	-0.15534437
215	0xbc56c5e8	-0.013108708
216	0x3de12197	0.10992735
217	0x3b5f0108	0.0034027714
218	0x3d3492e5	0.044085402
219	0x3e0c7fcb	0.13720624
220	0xbd882252	-0.06647171
221	0x3c3752b2	0.01118915
222	0xbe5e46df	-0.21706723
223	0xbdabd84c	-0.08390865
224	0xbd675a1f	-0.05648243
225	0xbdebda95	-0.115163006
226	0xbe42f207	-0.19037639
227	0x3d2fb4f0	0.042897165
228	0xbe066bee	-0.1312711
229	0xbd459608	-0.048238784
230	0xbdf4deb0	-0.11956537
231	0x3c955a86	0.018231642
232	0x3cb55129	0.022133427
233	0xbb48ec89	-0.0030658564
234	0x3dddb8ae	0.108262405
235	0x3c66f8b5	0.014097382
236	0xbda8a82f	-0.082352035
237	0xbe3880b3	-0.18017845
238	0xbd3213ef	-0.04347604
239	0xbe3bb3f7	-0.1833037
240	0xbd6b751d	-0.057484735
241	0x3ca1edbf	0.019766686
242	0xbbd519f0	-0.006503336
243	0xbe188176	-0.14893135
244	0x3d2a85d3	0.04163153
245	0x3dbf8b35	0.093527235
246	0xbdb161b8	-0.086612165
247	0x3d344920	0.04401505
248	0xbe1bb939	-0.15207376
249	0x3d8897b7	0.06669562
250	0x3d0365f4	0.032079652
251	0xbd9dce9b	-0.077054225
252	0x3d723587	0.05913308
253	0x3c0a9a6a	0.008459667
254	0x3df50fe1	0.11965919
255	0xbd144839	-0.03620169

weight f4 [128, 256]
0	0xbd115323	-0.035479676
1	0xbce5d341	-0.028054835
2	0xbc8c5844	-0.017131932
3	0x3bd42023	0.0064735576
4	0xbc3947b3	-0.011308598
5	0xbcce004a	-0.025146622
6	0x3da03b83	0.07823851
7	0xbc411420	-0.011784583
8	0x3d18e103	0.037323963
9	0x3c992c07	0.018697752
10	0xbd3fb855	-0.046806652
11	0xbc4de53f	-0.012566864
12	0x3c7161e0	0.014732808
13	0x3c42f433	0.011899042
14	0xbd86c3a7	-0.065802865
15	0xbc7c4d06	-0.015399223
16	0xbdca9b57	-0.0989291
17	0x3cd610a5	0.026130984
18	0xbaabba00	-0.0013101697
19	0xbb8cc149	-0.0042955023
20	0xbc9d0903	-0.019169336
21	0xbd24ea2c	-0.040262386
22	0xbdd37e60	-0.103268385
23	0x3c83be45	0.016081939
24	0xbd6bfdb6	-0.057615004
25	0xbcc0579a	-0.023479272
26	0xbd8f5d52	-0.07000221
27	0x3d2b921e	0.041887395
28	0xbd8898a5	-0.0666974
29	0xbd928a2b	-0.0715526
30	0x3c095401	0.0083818445
31	0xbc4b95c2	-0.012425842
32	0xbd7e2533	-0.062047195
33	0xbbc023a8	-0.0058636256
34	0xbb1074b2	-0.0022042212
35	0xbd8e013a	-0.06933828
36	0x3cae6d0f	0.021292238
37	0xbd8c7428	-0.068580925
38	0x3d44934e	0.047992043
39	0xbdad7989	-0.084704466
40	0x3c163994	0.009169001
41	0x3dc62af7	0.09676164
42	0x3d963174	0.07333651
43	0xbdf29fd1	-0.11846889
44	0xb9d3f1e8	-0.0004042529
45	0xbdcfec8d	-0.1015254
46	0xbe2bab59	-0.16764583
47	0xbd99117c	-0.07474038
48	0xbd5c45d3	-0.053777527
49	0x3be45fec	0.0069694426
50	0x3d00b5b8	0.0314233
51	0xbc4dacfd	-0.012553451
52	0x3c18e872	0.009332763
53	0x3cb17213	0.02166084
54	0xbc241a5f	-0.010016053
55	0xbcbed968	-0.023297027
56	0xbca4cf31	-0.020118328
57	0x3d2248ac	0.039620087
58	0xbd9466d2	-0.07246174
59	0xbda55ef9	-0.08074755
60	0x3d2630cf	0.04057389
61	0x3d532391	0.05154759
62	0xbcae37b3	-0.021266794
63	0x3da9aab2	0.08284511
64	0x3d89a164	0.06720236
65	0xbde09ec6	-0.10967784
66	0x3df9534b	0.1217409
67	0xbe1e383e	-0.15451142
68	0xbbb1ef70	-0.0054301545
69	0xbd938ae4	-0.07204226
70	0xbd675a82	-0.0564828
71	0x3c057482	0.008145453
72	0xbc41f58a	-0.011838326
73	0xbdb2b19a	-0.08725281
74	0x3d278558	0.04089865
75	0xbccd53af	-0.025064318
76	0x3dd9eafb	0.10640522
77	0x3d00c105	0.031434078
78	0x3d421d86	0.047391437
79	0xbd3d02a9	-0.046145115
80	0xbd2b879e	-0.04187738
81	0xbd3186bd	-0.043341387
82	0x3b6c2d1d	0.0036037632
83	0xbcb63a20	-0.022244513
84	0x3d47b5a8	0.048757225
85	0x3cb6e3d3	0.022325432
86	0xbe0e49e2	-0.13895372
87	0xbd024cc0	-0.031811476
88	0x3d31ea0f	0.043436106
89	0xbdafbc1e	-0.085808024
90	0xbd9a6c04	-0.075401336
91	0x3debbb5b	0.115103446
92	0x3d7ec752	0.062201805
93	0xbcb0c07f	-0.021576164
94	0x3da6f333	0.08151855
95	0xbdd4bb4c	-0.103872865
96	0x3cc96d93	0.024588382
97	0xbde25ff3	-0.11053457
98	0x3d1ae143	0.037812483
99	0x3cc2f336	0.023797613
100	0xbd6c1c65	-0.057644267
101	0x3c7fccd7	0.0156128025
102	0x3c7be387	0.015374071
103	0xbd5b21ed	-0.05349915
104	0xbc50a0dc	-0.012733664
105	0x3de682b9	0.11255402
106	0xbd3e19aa	-0.046411194
107	0x3dd4d705	0.10392574
108	0x3cce34ac	0.0251716
109	0xbbd2cafe	-0.00643289
110	0xbdb812fa	-0.089879945
111	0x3c4fe928	0.012689866
112	0xbdb5ee55	-0.08883349
113	0x3cacbd3e	0.021086331
114	0xbd249ebf	-0.040190455
115	0xbd49c793	-0.049262594
116	0xbcadc20e	-0.021210697
117	0xbd018033	-0.0316164
118	0xbd24b933	-0.040215682
119	0xbdba296c	-0.09089932
120	0xbd2c89b9	-0.04212353
121	0xbdcde20f	-0.10052883
122	0xbcba088c	-0.022709154
123	0x3bb5696d	0.0055362494
124	0x3cc6f2b3	0.02428565
125	0x3be6d350	0.0070442334
126	0xbda36432	-0.07978095
127	0x3b36497a	0.0027814792
128	0x3b9a17f0	0.0047025606
129	0xbd33d198	-0.043901056
130	0xbd1f8e4c	-0.038954064
131	0xbbc138bd	-0.0058966563
132	0xbd91442e	-0.07093082
133	0xba0808e8	-0.00051893154
134	0x3d4efbd3	0.050533127
135	0xbe172ad0	-0.14762425
136	0x3dac8da1	0.08425451
137	0x3ca3e733	0.020007705
138	0x3d335d9e	0.043790452
139	0x3d863540	0.065531254
140	0xbdafa90a	-0.085771635
141	0x3d880379	0.06641287
142	0xbb9f1d92	-0.00485582
143	0xbc37c19e	-0.0112155955
144	0x3d8d6c00	0.06905365
145	0xbd508758	-0.050910324
146	0x3cc73e4b	0.024321696
147	0x3dc1f663	0.09470823
148	0x3c23feda	0.010009492
149	0xbd83b038	-0.064300954
150	0xbda5c522	-0.08094241
151	0xbc962162	-0.018326465
152	0xbd4e2c7d	-0.050335396
153	0x3cc5f187	0.02416302
154	0xbdb40089	-0.087891646
155	0xbdb41353	-0.08792748
156	0xbdafa857	-0.0857703
157	0xbb81be7f	-0.0039594765
158	0xbd9499e5	-0.072559156
159	0xbdb5f802	-0.08885194
160	0x3b23e6ef	0.0025009473
161	0xbb898dfc	-0.004197834
162	0x3d16e202	0.03683663
163	0xbd0ba9e1	-0.034097556
164	0x3c9ee01c	0.019393973
165	0xbcf619a8	-0.03004153
166	0xbbc9da91	-0.0061600883
167	0x3c729ddb	0.0148081435
168	0xbda239b1	-0.0792116
169	0x3cadfbb9	0.021238195
170	0xbd2081b4	-0.039186195
171	0x3c1c58b8	0.009542637
172	0x3d952fce	0.07284509
173	0xbd02cad7	-0.031931724
174	0xbd1f9f61	-0.038970355
175	0xbd15a354	-0.036532715
176	0x3cb9aae7	0.0226645
177	0xbe18116f	-0.148504
178	0xbd4d1259	-0.050066326
179	0xbd409621	-0.047018174
180	0x3b9f9ca0	0.004870966
181	0x3d8e8f73	0.069609545
182	0x3d464387	0.048404243
183	0x3d55f291	0.052233282
184	0xbb13e01d	-0.0022564002
185	0xbd129892	-0.035790034
186	0xbd92f3ad	-0.07175384
187	0xbdceec2c	-0.1010364
188	0x3ab9265f	0.0014125815
189	0xbd312e70	-0.043257177
190	0xbc32f641	-0.010922969
191	0xbd91e0ab	-0.0712293
192	0xbd38e087	-0.045136
193	0xbcd45840	-0.025920987
194	0xbd41577b	-0.04720257
195	0x3c28d4a0	0.0103046
196	0x3dc3cb4d	0.09560261
197	0x3c7813e9	0.015141466
198	0xbb483ee0	-0.0030555055
199	0x3d1d0a9c	0.038340196
200	0x3cb3378f	0.021877078
201	0x3cb99fce	0.022659209
202	0xbcb01488	-0.021494165
203	0xbd9294fd	-0.071573235
204	0xbd1a77eb	-0.03771202
205	0x3d8b0d98	0.06789702
206	0x3d5bc5b7	0.053655352
207	0x3d25308d	0.040329505
208	0xbdb1e82f	-0.08686864
209	0x3bdc1cc8	0.006717298
210	0x3cefda53	0.02927891
211	0xbd89ed27	-0.06734686
212	0xbd881759	-0.06645078
213	0xbe1e4bf8	-0.15458667
214	0xbdad0808	-0.084487975
215	0xbe28c0c3	-0.16479783
216	0x3c338f5e	0.010959474
217	0xbd2924ba	-0.04129479
218	0xbdaafe83	-0.083493255
219	0xbc226fb4	-0.009914327
220	0xbd3ad90b	-0.045617145
221	0x3d25d059	0.0404819
222	0x3cd57137	0.026054962
223	0xbd1c710c	-0.038193747
224	0x3d6fc380	0.058536053
225	0xbcb6b63f	-0.022303699
226	0x3d8d9ebf	0.06915044
227	0x3cc6f5a2	0.024287049
228	0x3d39d865	0.045372386
229	0xbca465ee	-0.020068135
230	0xbc4c0454	-0.012452204
231	0xbd646edc	-0.055769786
232	0xbda92bb0	-0.08260286
233	0x3d4316e6	0.04762926
234	0xbd0dbf9b	-0.034606557
235	0xbdc20f8d	-0.09475622
236	0xbdb8c97d	-0.09022806
237	0xbda82e80	-0.08211994
238	0x3d90f9c3	0.07078888
239	0x3d3afb45	0.045649786
240	0xbca66d76	-0.020315867
241	0x3d4e6519	0.050389383
242	0x3d59b62a	0.05315224
243	0xbd6132a3	-0.05497993
244	0x3d9ea0ac	0.077454895
245	0xbd8cca59	-0.06874532
246	0xbd894a3a	-0.06703611
247	0x3d804f40	0.06265116
248	0x3d64daa3	0.05587257
249	0xbc9f19a6	-0.01942141
250	0xbbd25fc0	-0.0064201057
251	0x3ca30fe9	0.019905047
252	0xbdb5e2d2	-0.08881153
253	0x3d5032b1	0.050829593
254	0x3c68ac5a	0.014201248
255	0xbc2557d7	-0.010091743

bias f4 [128]
0	0xbcecb952	-0.028896961
1	0xbc0af456	-0.008481106
2	0x3d42a77e	0.047523014
3	0x3c7ce18e	0.015434636
4	0xbe12f525	-0.14351328
5	0x3c42ea25	0.011896645
6	0xbd807196	-0.06271665
7	0xbda9fead	-0.08300529
8	0x3d4c2baf	0.049846347
9	0xbdef424b	-0.11682566
10	0xbd83fbf7	-0.06444543
11	0xbd2b5ef0	-0.041838586
12	0xbe495a76	-0.19663414
13	0x3826b90d	3.9749826e-05
14	0xbd23879c	-0.03992425
15	0xbc7884f3	-0.015168416
16	0x3d63bd49	0.05560044
17	0xbd97102e	-0.07376133
18	0xbe0304c1	-0.12794782
19	0xbcec6851	-0.028858336
20	0xbd8beca1	-0.06832243
21	0xbb9394a9	-0.0045038057
22	0x3d486d97	0.048932638
23	0x3d0b2a59	0.033975933
24	0xbc0bf6f5	-0.008542766
25	0xbb21ddbd	-0.0024698817
26	0xbd7c4f8c	-0.0615993
27	0xba0eb8ab	-0.0005444388
28	0x3d88514a	0.0665613
29	0xbda3c0a9	-0.079957314
30	0x3c217765	0.009855126
31	0x3d1cffb4	0.038329795
32	0xbd688b77	-0.05677363
33	0xbd34a923	-0.044106614
34	0xbbce2684	-0.0062912125
35	0x3b801ab2	0.0039094323
36	0x3b258f3b	0.0025262374
37	0xbdaaba51	-0.08336318
38	0x3cbf5032	0.02335367
39	0xbde87fe1	-0.11352516
40	0xbd9f70f5	-0.07785217
41	0xbd1669b5	-0.036721904
42	0xbd487850	-0.048942864
43	0xbd2077ab	-0.039176624
44	0xbcc3283d	-0.023822898
45	0xbd792f84	-0.06083633
46	0xbda386b4	-0.07984677
47	0x3d096814	0.033546522
48	0xbdfc5571	-0.12320984
49	0xbd90f59a	-0.07078095
50	0x3c9aebdf	0.0189113
51	0xbd022fe7	-0.031783964
52	0xbdc621b3	-0.09674396
53	0xbb73b741	-0.0037188085
54	0xbd1a63ec	-0.03769295
55	0xbc028fae	-0.007968826
56	0xbd81b2d4	-0.06332937
57	0xbe1913c4	-0.14948946
58	0xbcd37e52	-0.02581707
59	0xbd8d0b4a	-0.06886919
60	0xbd7fb949	-0.06243256
61	0xbbc554e6	-0.0060220836
62	0xbdc54615	-0.09632508
63	0x3c07a49f	0.008278995
64	0xbde31ad9	-0.11089105
65	0x3d04d17e	0.03242635
66	0xbda8fcf7	-0.08251374
67	0x3d3cee57	0.046125736
68	0xbd721091	-0.05909783
69	0xbe29aae6	-0.16569099
70	0x3cc23260	0.023705661
71	0xbd8a7ba4	-0.06761864
72	0xbcbfd31b	-0.023416093
73	0xbd01ad17	-0.031659212
74	0x3c9019f0	0.017590493
75	0xbd6c3be5	-0.057674307
76	0x3c104d3b	0.008807476
77	0xbd8e4aa2	-0.06947829
78	0xbc209e3e	-0.009803353
79	0xbe119b29	-0.14219345
80	0xbc06069b	-0.008180286
81	0xbd88ea1c	-0.06685278
82	0x3d335d34	0.043790057
83	0xbd866f19	-0.06564159
84	0x3bab83e1	0.005234227
85	0xbc839bba	-0.016065467
86	0x3c621c99	0.0138007635
87	0x3b8e0f15	0.004335294
88	0xbdc13148	-0.09433228
89	0x3cf7ccfc	0.030249111
90	0x3ced480b	0.028965017
91	0x3c9273d4	0.017877497
92	0xbd8d3a60	-0.068959
93	0xbdb30209	-0.087406226
94	0xbd85c1c6	-0.065311
95	0xbd1cf282	-0.03831721
96	0xbc9477dc	-0.01812356
97	0xbd93bab5	-0.07213346
98	0xbd92ff0c	-0.071775526
99	0xbd95b478	-0.07309812
100	0xbbfc7dbb	-0.007705418
101	0xbc83f2a8	-0.016106918
102	0xbdc20a54	-0.09474626
103	0x3b09ff0a	0.0021056556
104	0xbde8b59e	-0.11362766
105	0xbdd49446	-0.103798434
106	0xbd31120f	-0.043230113
107	0x3d10197c	0.035180554
108	0xbd470473	-0.048588227
109	0x3c21e369	0.009880879
110	0xbda5ed2f	-0.0810188
111	0xbdd913f2	-0.105995074
112	0xbdabbcce	-0.08385621
113	0x3b439d85	0.0029848528
114	0xbdd222e9	-0.10260565
115	0x3b9486d7	0.0045326757
116	0x3ccf50c1	0.025307061
117	0x3c1695b6	0.009190967
118	0x3d8fd0f5	0.07022277
119	0x3d23aafc	0.039957985
120	0x3d558cae	0.052136116
121	0x3dd200a2	0.10254027
122	0x3d164c16	0.036693655
123	0x3c332e5e	0.010936348
124	0xbdefd52c	-0.11710581
125	0xbd8da631	-0.06916464
126	0xbdbfe67c	-0.09370133
127	0xbc4bf439	-0.012448364

weight f4 [128, 128]
0	0x3c0785ca	0.008271644
1	0x3d2e0430	0.042484462
2	0xbd2d2d7e	-0.042279713
3	0xbd95942b	-0.073036514
4	0xbd9b54e8	-0.07584554
5	0x3d6b7832	0.057487674
6	0xbb0f5f53	-0.0021876886
7	0x3ca5a131	0.020218464
8	0x3d823dad	0.0635942
9	0x3d763aa2	0.06011451
10	0x3d944392	0.072394505
11	0xbdd95123	-0.10611179
12	0xbd3f5324	-0.04671015
13	0x3d7d251d	0.061802972
14	0x3d589c76	0.052883588
15	0xbd20951b	-0.039204698
16	0xbddc1ad0	-0.107473016
17	0x3d4bc5af	0.049749073
18	0xbb630ea3	-0.0034646175
19	0xbcd75ac9	-0.026288407
20	0x3d7d8e44	0.061903253
21	0x3d96c5a2	0.07361914
22	0xbe0a56d5	-0.13509686
23	0x3dbef4a9	0.09324009
24	0xbd25bf4a	-0.04046563
25	0xbd58f35e	-0.052966468
26	0xbd81fbf2	-0.06346883
27	0x3d0d94de	0.0345658
28	0xbd53451d	-0.051579583
29	0xbd751338	-0.05983278
30	0xbcf35c41	-0.029707076
31	0xbde7a3c7	-0.11310535
32	0x3dc5c476	0.096566126
33	0x3db31a36	0.08745234
34	0x3c0a2f01	0.008434058
35	0x3d8b4a74	0.0680131
36	0x3d04ef5c	0.032454833
37	0x3d6424c8	0.05569914
38	0xbd82edaa	-0.06392987
39	0xbd411c20	-0.047145963
40	0x3ce22d1f	0.027609406
41	0xbd274f57	-0.04084715
42	0x3b909038	0.0044117235
43	0x3d15a732	0.036536403
44	0xbd51153a	-0.051045634
45	0x3caf72a4	0.02141697
46	0x3da2340e	0.07920085
47	0xbd1647dc	-0.036689624
48	0xbb45d3b5	-0.0030186002
49	0xbbeb4e9a	-0.007181001
50	0xbd507bcf	-0.050899323
51	0x3c5214b0	0.012822315
52	0x3c31b636	0.010846665
53	0x3cb4abfa	0.022054661
54	0x3c84036a	0.01611491
55	0x3ae885ac	0.0017740033
56	0xbc3b05c2	-0.011414947
57	0x3d964eab	0.073392235
58	0x3ca25a03	0.019818312
59	0x3d83e283	0.06439688
60	0x3cb521db	0.02211087
61	0x3c24c942	0.010057749
62	0xbbc209da	-0.0059215846
63	0xbcb434e2	-0.021997873
64	0x3d8359ec	0.064136356
65	0x3d9939ba	0.074817136
66	0x3b339845	0.0027403992
67	0x3b561a16	0.0032669357
68	0x3d8b612c	0.068056434
69	0xbd915c7e	-0.070977196
70	0xbd73fec6	-0.059569143
71	0xbdb4d633	-0.08829918
72	0x3d1f4274	0.038881734
73	0xbc44628c	-0.011986386
74	0xbbe442ec	-0.0069659855
75	0xbd43b29e	-0.047777764
76	0x3d266f1e	0.040633313
77	0x3d80e780	0.06294155
78	0x3d58f0f0	0.05296415
79	0xbdb2b6a7	-0.087262444
80	0xbdc54669	-0.0963257
81	0xbd6cc92f	-0.05780905
82	0xbc716cfc	-0.014735457
83	0x3b09220d	0.0020924837
84	0x3b180b16	0.0023199967
85	0xbb999694	-0.0046871398
86	0xbd874d80	-0.06606579
87	0xbd979598	-0.074015796
88	0x3ceacd5b	0.028662374
89	0xbdaa8095	-0.08325306
90	0xbdaf39d5	-0.085559525
91	0x3c687796	0.014188668
92	0xbd3d6635	-0.04624005
93	0xbcd46f2d	-0.025931919
94	0xbcede9a6	-0.029042076
95	0x3c85bb3b	0.01632463
96	0xbd211cd3	-0.03933413
97	0x3d0717c1	0.032981638
98	0xbd0067f5	-0.03134914
99	0x3dadbd04	0.084833175
100	0x3c362038	0.01111608
101	0xbc8acb1f	-0.016942559
102	0xbb7e2c16	-0.0038783601
103	0xbd08ffa7	-0.033446934
104	0x3d5fafd8	0.054611057
105	0xbd6fb22e	-0.058519535
106	0x3ba20596	0.0049445136
107	0x3d9fd55c	0.07804367
108	0x3cc6459c	0.024203114
109	0xbd88e537	-0.06684344
110	0xbd7b9093	-0.061417174
111	0x3cd59689	0.026072757
112	0x3c9d6a0f	0.019215612
113	0xbcbae512	-0.022814307
114	0x3d1ed2ab	0.038775127
115	0xbcccf05b	-0.025016954
116	0x3d251420	0.040302396
117	0xbcb3c905	-0.02194644
118	0xbd285150	-0.04109317
119	0x3d6f52a8	0.058428437
120	0x3d57f993	0.052728247
121	0xbcc0c76a	-0.023532588
122	0xbce683c5	-0.028139004
123	0xbd44af37	-0.04801866
124	0xbd1e31f9	-0.038621876
125	0x3d9ddecc	0.07708511
126	0xbd191f84	-0.03738357
127	0x3c46aad7	0.012125692
128	0xbc1217e7	-0.008916832
129	0x3cd73170	0.02626869
130	0x3c7a7a92	0.015288012
131	0xbc3a21fe	-0.011360643
132	0x3d6e8a84	0.058237568
133	0xbe4ad68c	-0.19808406
134	0x3cc17fa3	0.023620432
135	0xbcd5cb6e	-0.02609798
136	0xbdd6193c	-0.10454032
137	0xbd711d77	-0.05886599
138	0xbc33f796	-0.010984322
139	0x3d6d9729	0.058005486
140	0xbd89d842	-0.06730701
141	0xbbd51a31	-0.0065033664
142	0x3d0d068c	0.03443007
143	0xbc4d2f60	-0.012523502
144	0xbd905117	-0.07046717
145	0x3cf5a5d2	0.029986296
146	0xbddac869	-0.106827565
147	0xbe1dbbba	-0.15403643
148	0x3bfeee74	0.0077798907
149	0xbc86b5eb	-0.016444167
150	0xbe0e8504	-0.13917929
151	0x3cf11dfe	0.029433247
152	0x3df458b3	0.119309805
153	0xbd6a561c	-0.057211027
154	0x3c9062a7	0.017625166
155	0x3d56a77a	0.05240581
156	0x3d620d51	0.05518848
157	0x3e0ecb27	0.13944684
158	0xbc24eba0	-0.010065943
159	0xbe1b7d28	-0.15184462
160	0x3d3f5cea	0.04671947
161	0x3caa0f88	0.020759359
162	0xbdfe5470	-0.12418449
163	0xbd75d777	-0.060019936
164	0xbd7e27f9	-0.06204984
165	0xbd43a49a	-0.0477644
166	0xbd02c535	-0.031926353
167	0xbd1c20e4	-0.038117304
168	0x3b1c7ce8	0.002387816
169	0x3dfcd086	0.1234446
170	0xbd90b2b4	-0.07065335
171	0x3d36e765	0.04465427
172	0xbcf85a99	-0.030316638
173	0xbd57e819	-0.05271158
174	0x3d828e6c	0.06374821
175	0x3d48011e	0.04882919
176	0x3cf544d1	0.02994004
177	0xb9c9d8da	-0.00038499275
178	0xbd440349	-0.047854695
179	0x3d1b7135	0.03794976
180	0xbda5c2f3	-0.08093824
181	0xbcb3a5e1	-0.021929683
182	0x3c9a4509	0.018831747
183	0xbda2699b	-0.07930299
184	0x3bc273c9	0.005934213
185	0x3c97451e	0.018465575
186	0x3cd16bdb	0.025564125
187	0xbde06264	-0.109562665
188	0xbdbb1040	-0.09133959
189	0xbdf1b2f0	-0.11801708
190	0x3da5048a	0.080575064
191	0x3dd4806c	0.10376057
192	0x3cfb5580	0.030680418
193	0x3c2b5e90	0.010459557
194	0xbb56801a	-0.0032730163
195	0x3cbf29c9	0.023335354
196	0x3a99df63	0.0011739548
197	0x3cbe5805	0.02323533
198	0xbe395e0e	-0.18102285
199	0xbde4bb10	-0.11168492
200	0x3b7ce237	0.0038586983
201	0xbc6f4545	-0.0146039175
202	0x3d6b33f9	0.05742261
203	0x3e176b96	0.14787135
204	0x3c2c9684	0.010533933
205	0x3cf638cc	0.03005638
206	0x3cd8424d	0.026398802
207	0xbc0f6898	-0.008752964
208	0xbda910b4	-0.08255139
209	0x3d9af09c	0.07565424
210	0xbcc7a000	-0.024368286
211	0x3d1ad4e9	0.037800703
212	0x3cb91dc3	0.0225972
213	0x3ce8dadb	0.02842467
214	0x3ddb8206	0.107181594
215	0x3ac53389	0.0015045266
216	0xbdc86b54	-0.09786096
217	0x3dc93848	0.09825188
218	0x3d863ba0	0.06554341
219	0xbe07187f	-0.13192938
220	0x3da36d6e	0.079798564
221	0x3d805c8e	0.062676534
222	0xbdbe3cc6	-0.09288935
223	0x3d15acb4	0.036541656
224	0xbd14dc9c	-0.036343202
225	0xbd4e8e9c	-0.05042897
226	0xbdbeed8d	-0.09322653
227	0x3d81ec1d	0.06343863
228	0x3c87e4a6	0.01658852
229	0x3d5b8f5d	0.05360352
230	0xbd41b0fd	-0.04728793
231	0x3d193de3	0.037412535
232	0xbda35fed	-0.07977281
233	0x3baa633b	0.0051998175
234	0xbd689714	-0.056784704
235	0xbd15d9f7	-0.03658482
236	0xbd5719aa	-0.05251471
237	0x3cce6885	0.025196323
238	0xbd971ed9	-0.073789306
239	0xbdde6ede	-0.1086099
240	0x3e034f1a	0.12823144
241	0x3c235615	0.009969254
242	0x3a3ca8ee	0.00071968033
243	0xbdb99f81	-0.09063626
244	0x3c870cb7	0.016485555
245	0x3d6d9518	0.058003515
246	0xbc100263	-0.008789632
247	0x3ae9814c	0.0017815023
248	0xbdfde532	-0.12397231
249	0x3d294844	0.041328683
250	0xbda7d8d0	-0.081956506
251	0xbdc06671	-0.09394539
252	0x3dbc2ee9	0.09188635
253	0xbc141ec9	-0.009040543
254	0x3d98a773	0.074538134
255	0xbd560676	-0.052252255

bias f4 [128]
0	0xbd3ca219	-0.046053026
1	0x3c152297	0.009102485
2	0xbc0b98a9	-0.008520284
3	0xbe2bc7c4	-0.16775423
4	0x3c165d71	0.009177552
5	0x3d4075ed	0.046987463
6	0xbd98e998	-0.074664295
7	0x3d670d38	0.05640909
8	0x3c793bd0	0.015212014
9	0xbc9d43bd	-0.01919734
10	0xbd8574c0	-0.06516409
11	0xbe24b11a	-0.16083184
12	0xbd6b7606	-0.057485603
13	0xbc9587c6	-0.018253218
14	0x3c6310d2	0.013858991
15	0xbd827703	-0.06370356
16	0x3dab2612	0.08356871
17	0xbdb06ae0	-0.08614135
18	0xbd97381b	-0.07383748
19	0xbd7f6f6f	-0.06236213
20	0x3da5a6c4	0.08088449
21	0xbd68f659	-0.05687556
22	0xbbb6465b	-0.0055625862
23	0xbe4f26bd	-0.20229621
24	0x3ce69bca	0.028150458
25	0x3b314976	0.0027051843
26	0xbd46868b	-0.048468154
27	0xbd3e14c3	-0.04640652
28	0xbd6e59bf	-0.058191057
29	0xbdcf0b71	-0.10109604
30	0xbdbfe50d	-0.0936986
31	0xbd57471d	-0.052558053
32	0xbc35a717	-0.011087201
33	0x3cb05a08	0.021527305
34	0x3bb73c08	0.005591873
35	0x3dbb3b08	0.09142119
36	0x3d14af10	0.036299765
37	0xbdd42813	-0.10359206
38	0xbc68255c	-0.014169063
39	0x3cf45568	0.029825881
40	0xbc744fc3	-0.014911595
41	0xbda0a756	-0.07844417
42	0xbd809768	-0.062788785
43	0xbe1084e1	-0.1411319
44	0xbde564ca	-0.112008646
45	0xbd0dc554	-0.034612015
46	0xbd91671d	-0.070997454
47	0xbdd02205	-0.10162739
48	0x3cedf67a	0.029048193
49	0x3cf28b16	0.029607337
50	0x3cd1227f	0.025529144
51	0x3d0e85e2	0.03479565
52	0xbd9db227	-0.076999955
53	0xbb3a99a8	-0.0028472934
54	0xbda99d96	-0.0828201
55	0xbd13aa01	-0.0360508
56	0xbbd32e19	-0.0064447043
57	0xbd91fa1a	-0.07127781
58	0xbd465366	-0.04841938
59	0x3d95b0f7	0.07309144
60	0x3b5c1404	0.0033581266
61	0x3d41203c	0.04714988
62	0xbdbeca6f	-0.09315955
63	0xbdcc9845	-0.099899806
64	0xbdb8cbed	-0.09023271
65	0xbc535963	-0.012899729
66	0xbd1840d1	-0.03717119
67	0x3d512ee9	0.051070128
68	0xbd4f6491	-0.050633017
69	0xbd8b1465	-0.06790999
70	0x3d17f756	0.037101112
71	0x3cccbb41	0.024991633
72	0xbdac0011	-0.0839845
73	0xbd8cb280	-0.06869984
74	0xbd53255f	-0.05154931
75	0xbd2fa4d8	-0.042881817
76	0xbdf77745	-0.12083296
77	0x3d432210	0.047639906
78	0x3c353eec	0.011062365
79	0xbc1e71fe	-0.009670733
80	0xbaeb8583	-0.0017968867
81	0xbd051d42	-0.032498606
82	0xbcb5ff1a	-0.022216368
83	0xbdfa75a9	-0.12229473
84	0xbd968aac	-0.07350668
85	0xbdaff4fc	-0.08591649
86	0xbd96d544	-0.07364896
87	0xbdd58b74	-0.10426989
88	0xbd7a89ad	-0.061166454
89	0x3c0a7f4e	0.008453203
90	0xbe0644c8	-0.13112175
91	0xbd73c88c	-0.05951743
92	0xbd4b8724	-0.049689427
93	0xbdcb3798	-0.09922713
94	0x3d2b1429	0.041767273
95	0xbdc73a4b	-0.097279154
96	0xbd51919f	-0.051164266
97	0xbda14d01	-0.078760155
98	0xbd5edb72	-0.054408498
99	0x3cb2b753	0.021815931
100	0xbc79db32	-0.015250014
101	0xbd78b0c9	-0.06071547
102	0x3d2d8177	0.042359795
103	0xbda6bec3	-0.08141854
104	0xbd1a0b71	-0.037608568
105	0x3cc26d8a	0.023733873
106	0x3d63ad83	0.055585396
107	0xbdb6e134	-0.08929673
108	0xbd817280	-0.06320667
109	0xbda95463	-0.082680486
110	0xbdc9087f	-0.098160736
111	0xbc22f2fe	-0.009945629
112	0xbde18db4	-0.11013356
113	0xbd9a1431	-0.075233825
114	0xbe123447	-0.14277755
115	0xbe0a3dd1	-0.13500144
116	0xbd2178c0	-0.039421797
117	0xbd28cdb9	-0.041211817
118	0xbd038bec	-0.03211586
119	0x3d8755ef	0.066081874
120	0xbc6fdb6c	-0.014639717
121	0xbdb34fdd	-0.08755467
122	0x3cda52f7	0.026650889
123	0x3d57c258	0.052675575
124	0x3cb143f1	0.021638842
125	0xbd9511fb	-0.0727882
126	0xbdfd45f0	-0.12366855
127	0xbd72b368	-0.059253126

weight f4 [23, 128]
0	0xbb8640d4	-0.0040970836
1	0x3d255eeb	0.040373724
2	0x3d34d058	0.044144005
3	0x3d835388	0.06412417
4	0x3cb16631	0.021655174
5	0xbc78978b	-0.015172849
6	0x3be8cf2a	0.007104774
7	0xbc6f6e34	-0.014613677
8	0x3b2e7b9d	0.0026623972
9	0xbcd0ebfb	-0.02550315
10	0x3c15677e	0.009118913
11	0xbc8a8cb3	-0.016912794
12	0x3ccfc701	0.025363447
13	0x3a8556aa	0.0010172923
14	0xbcdfc7e9	-0.027317004
15	0x3d853e12	0.065059796
16	0xbcb88210	-0.022522956
17	0xbc95b117	-0.01827292
18	0x3be574dd	0.0070024566
19	0x3c27efa7	0.010250009
20	0x3b3ebc3b	0.0029103893
21	0x3cb12706	0.021625053
22	0x3d554155	0.05206426
23	0x3c1b278a	0.009469876
24	0x3c9a2b13	0.018819368
25	0x3c48e352	0.012261229
26	0x3c404e2d	0.011737389
27	0x3d0628f9	0.03275392
28	0x3d228289	0.03967527
29	0x3c60c833	0.013719606
30	0x3cb0f8fd	0.021603102
31	0xb8b1f0c9	-8.4848674e-05
32	0xbcb04a41	-0.021519782
33	0x3ca7242b	0.020402988
34	0xbb9c64ea	-0.004772772
35	0x3c431f91	0.0119093815
36	0x3c35c1d0	0.011093572
37	0x3c47e50a	0.012200603
38	0x3cff1578	0.031138167
39	0xbcfa4a66	-0.030553054
40	0xbcdbb9e1	-0.026822032
41	0xbc295c71	-0.010336981
42	0xba1b269b	-0.00059185334
43	0xbb8b0112	-0.004242071
44	0x3d494877	0.049141373
45	0xbca0ed5f	-0.019644437
46	0xbdc1a410	-0.094551206
47	0x3bf10e5f	0.0073564495
48	0x3c97c562	0.018526737
49	0xbcc5e7cb	-0.024158379
50	0xbc82f5e8	-0.015986398
51	0xbb702980	-0.003664583
52	0x3af0e7d8	0.0018379642
53	0x3bf2b706	0.007407072
54	0xbd1051f4	-0.035234407
55	0x3a72dba5	0.0009264297
56	0x3cf81df5	0.030287722
57	0xbd07f59c	-0.033193216
58	0x3cf15b64	0.029462524
59	0xbca53614	-0.020167388
60	0xbd0ced5a	-0.034406044
61	0x3b027439	0.00199057
62	0x3c001e27	0.007819689
63	0x3d24a0c1	0.04019237
64	0x3d8c7963	0.0685909
65	0x3c208353	0.009796935
66	0x3ca78d4b	0.020453116
67	0xbcbe0fe3	-0.023200935
68	0x3d2a9789	0.04164842
69	0x3bf36f03	0.007429005
70	0xbc733519	-0.014844202
71	0x3cc68360	0.024232566
72	0xbb997de5	-0.0046841973
73	0x3d040270	0.032228887
74	0xbda824e1	-0.08210159
75	0xbba1e093	-0.0049401014
76	0xbcbcf267	-0.023064805
77	0x3ba4e2d1	0.0050319214
78	0x3be916a7	0.007113296
79	0x3c5a39e1	0.0133194635
80	0xbd15c12d	-0.03656118
81	0x3b5c1e55	0.0033587415
82	0xbc4ca0d1	-0.0124895135
83	0xbc411003	-0.011783603
84	0xbb6594a9	-0.0035031235
85	0xbce33c6f	-0.027738778
86	0xbd3a838b	-0.045535605
87	0xbc9e9501	-0.01935816
88	0x3c9528e7	0.01820798
89	0xbcde9d48	-0.027174607
90	0xba140f8e	-0.000564807
91	0xbd1b693a	-0.03794215
92	0x3cdabf69	0.0267026
93	0xbca4be00	-0.02011013
94	0xbd7998f9	-0.0609369
95	0x3c7519c4	0.014959756
96	0x3d28c67a	0.041204907
97	0xbcd0f30f	-0.025506524
98	0x3c8c65d3	0.017138397
99	0x3cb3bbee	0.021940198
100	0x3cbe4bb8	0.023229465
101	0x3b6ce649	0.0036148003
102	0x3ccb2545	0.024798045
103	0x3d55f8ad	0.05223911
104	0x3cfbccb4	0.030737258
105	0x395dd206	0.00021154442
106	0x3ce65835	0.028118232
107	0xbc8bd254	-0.017068066
108	0xbc92cbec	-0.017919503
109	0x3c614f99	0.013751888
110	0xbbe1f421	-0.0068955575
111	0xbd4671c3	-0.048448335
112	0x3c89acfd	0.01680612
113	0x3b44cf80	0.0030030906
114	0xbc4abea9	-0.0123745585
115	0x3c30eaed	0.010798198
116	0x3c8378f2	0.016048882
117	0xbcd6ae74	-0.026206233
118	0xbc0d5f9c	-0.008628752
119	0xbd74ea2f	-0.059793647
120	0xbbe4c72e	-0.006981752
121	0xbc960d97	-0.018317027
122	0xbdd52a8c	-0.10408506
123	0xbd6ee665	-0.05832519
124	0x3d4e3c8a	0.050350703
125	0xbd32c4e0	-0.043644786
126	0x3d468034	0.048462108
127	0x3d8ece24	0.06972912
128	0x3c42587c	0.011861917
129	0xbd893b34	-0.06700745
130	0x3d265ad2	0.040613957
131	0xbd491bc4	-0.049098745
132	0x3d2ec387	0.04266694
133	0xbce2ca80	-0.02768445
134	0xbc988e0a	-0.018622417
135	0x3d0d710c	0.034531638
136	0xbc3ca298	-0.011513375
137	0x3c566b43	0.013087097
138	0xbd40261d	-0.046911348
139	0xbc16f7ca	-0.009214351
140	0xbbbfb058	-0.0058498792
141	0x3ca594c8	0.020212546
142	0x3be15fa8	0.006877858
143	0xbda675ea	-0.08127959
144	0xbc81d0b9	-0.015846597
145	0x3c34208b	0.010994087
146	0xbc987ed0	-0.018615156
147	0xbc7e891a	-0.015535617
148	0x3c590180	0.0132449865
149	0xbc9bd7ca	-0.019023795
150	0x3b6f5013	0.0036516234
151	0xbd4a2362	-0.04935015
152	0xbd1df4d1	-0.038563553
153	0x3ce2b112	0.027672324
154	0xbc307c41	-0.010771812
155	0xbcf4c93f	-0.029881118
156	0x3ce6413f	0.028107284
157	0x3b2d7673	0.0026468306
158	0xbd2bbe7f	-0.041929718
159	0xbc8edeab	-0.01744016
160	0x3d04c65a	0.032415725
161	0x3bfa7b1b	0.00764407
162	0x3c6218e6	0.013799882
163	0xbc464d1e	-0.012103347
164	0xbc6786c5	-0.014131253
165	0x3b1182a6	0.0022203117
166	0x3b8b5c9b	0.004252983
167	0x3c499aeb	0.012305002
168	0x3d4aaf42	0.049483545
169	0xbd212977	-0.039346185
170	0x3beb2126	0.0071755825
171	0xbcb469de	-0.022023138
172	0xbcc84370	-0.02444622
173	0xbd232f45	-0.03984
174	0x3d5d91a8	0.054093987
175	0xbc24d7b7	-0.010061196
176	0x3bb6c63b	0.00557783
177	0x3c63ecfc	0.013911482
178	0x3d0f1e5d	0.034941066
179	0x3cc4323b	0.023949733
180	0x3c90ba38	0.017666921
181	0x3cddffa1	0.027099432
182	0x3cb5f072	0.02220938
183	0xbbf5fb20	-0.007506743
184	0xbc7df03e	-0.015499173
185	0xbac4e957	-0.0015023154
186	0x3ca4ac1e	0.020101603
187	0x3b1ee7f2	0.0024247137
188	0x3b0a0196	0.0021058074
189	0x3cc7f772	0.024409983
190	0x3c658330	0.014008328
191	0xbc849d91	-0.016188415
192	0x3c39ebf4	0.0113477595
193	0xbcaef714	-0.02135805
194	0xbc6e7db7	-0.01455634
195	0x3c6c8fb2	0.0144385565
196	0x3902533a	0.0001242877
197	0x3b088dfb	0.002083658
198	0xbc6a7fbc	-0.014312681
199	0x3c0c37bd	0.008558211
200	0xbd2612ba	-0.040545203
201	0x3ca21afd	0.01978826
202	0x3d57626f	0.052584108
203	0x3b0709ad	0.0020605132
204	0x3c410950	0.011782005
205	0x3c614310	0.013748899
206	0xbb920aef	-0.00445687
207	0x3b0dfe3e	0.0021666433
208	0x3cd3b283	0.025841957
209	0x3be5a904	0.0070086736
210	0x3ca6ae80	0.02034688
211	0x3a2a0c6f	0.0006486838
212	0x3cbe0f23	0.023200577
213	0x3b854ff7	0.0040683704
214	0xbd133412	-0.03593833
215	0xbc18aa4c	-0.009317946
216	0xbc616186	-0.013756162
217	0x3ca841e0	0.020539224
218	0xbcc3d5e6	-0.023905706
219	0x3d333e59	0.04376063
220	0xbc9a92c5	-0.018868813
221	0xbcdb695f	-0.026783643
222	0x3c6f3f52	0.014602499
223	0x3bd573ac	0.0065140333
224	0xbcc14985	-0.023594627
225	0xbc1c3532	-0.009534167
226	0x3c4e66cf	0.012597754
227	0x3d3f4a40	0.04670167
228	0xbbdbd757	-0.00670902
229	0x3c3a536e	0.01137243
230	0x3d79b323	0.060961854
231	0xbc88ff96	-0.016723435
232	0xbb791650	-0.0038007684
233	0x3c277f2a	0.010223189
234	0x3c48eefd	0.0122640105
235	0xbc8a836a	-0.016908366
236	0xbd14faef	-0.03637212
237	0xbc865899	-0.016399669
238	0xbbcb71ab	-0.0062086186
239	0x3d0be535	0.034154136
240	0xbc816b5a	-0.01579826
241	0xbb32dede	-0.0027293484
242	0xbc9c8883	-0.019108063
243	0xbd3bfc05	-0.04589464
244	0x3bf5595d	0.0074874596
245	0x3c545c8c	0.012961518
246	0xbbc5c3f1	-0.006035321
247	0x3d7efc7b	0.062252503
248	0xbb6a4791	-0.0035748223
249	0xbd2c9bdf	-0.042140838
250	0x3da32e04	0.07967761
251	0x3ba745c5	0.0051047527
252	0x3c0fa433	0.0087671755
253	0xbc499983	-0.012304666
254	0xbd871cf3	-0.065973185
255	0xbd42c205	-0.047548313

bias f4 [23]
0	0xbd55f106	-0.05223181
1	0x3ded1e28	0.115780175
2	0xbc907aa9	-0.017636614
3	0x3db06f91	0.086150296
4	0xbd942228	-0.07233077
5	0x3a584166	0.0008249491
6	0x3d4aceb1	0.049513523
7	0x3d9005c8	0.07032353
8	0xbd0d67dd	-0.03452288
9	0x3d5c1151	0.05372745
10	0x3c6fdc45	0.014639919
11	0x39c2c29f	0.00037147567
12	0xbd9d7c73	-0.076897524
13	0x3bb357e0	0.005473122
14	0x3cfb9b31	0.03071365
15	0xbda81d81	-0.082087524
16	0xbb91a92d	-0.004445216
17	0x3d1b2251	0.037874524
18	0xbd1c0923	-0.03809465
19	0x3cc32a6b	0.023823937
20	0xbcfa098d	-0.030522132
21	0xbba7e9aa	-0.0051242905
22	0xbcb0db6f	-0.02158901
